best_model.pt (torch, 58431 bytes, 7 tensors)

weight f4 [42, 4]
-1.0514607 -1.2406063 -3.4854527 -2.8196409 0.7751761 -1.8438699 0.038298156 1.3818959
0.14656703 0.92487955 0.7099569 -0.3905718 -0.11135338 0.17106965 0.78849155 0.61249673
-0.9300301 0.46606266 1.770784 1.912521 0.098379105 -0.8382767 0.18031214 -0.4502448
0.69828933 0.43872604 0.99951 -0.602434 -0.6588853 -2.022548 -0.5466056 0.41295198
-1.2055032 -0.43124905 0.7314275 0.8382652 -0.26173478 -1.2048287 1.0981977 -0.5261572
0.5301318 -0.56423664 0.7882121 -1.2197658 -0.71873677 -0.50961775 0.46237585 -1.9969046
-0.042945426 1.3212439 1.2620239 1.6557118 2.3420532 2.6738174 0.14323632 0.67425305
-0.5136051 -0.14869043 0.5033615 0.65937054 -0.45801574 0.15214862 1.2006336 1.0962081
-0.9178186 -1.0370795 -1.1808716 0.27582997 -0.45829335 0.23906207 1.4594284 -1.040017
-0.71707684 0.9830589 -0.175116 -0.42757154 0.7486861 -1.3169178 1.2247736 -1.0038084
0.061814647 0.7767228 0.41755176 -1.0622138 0.6797617 2.1302893 1.5718459 1.5344644
0.51119596 -1.9194822 1.0249976 0.19654118 0.5932103 -1.5172304 0.057719387 0.2510047
0.7078798 0.8610947 -0.14342757 1.0806383 0.2687823 -1.2386965 0.97049475 -0.89721155
0.944309 -0.6561046 1.4646078 -0.44507018 0.24602874 -0.08304443 0.082492106 1.7240874
0.2272911 -0.61267793 -0.6042819 0.21674669 -0.36074576 -1.9516948 -1.9262203 0.6986375
0.34050658 0.43620127 1.0027914 -1.0151728 0.9037679 0.5520988 -0.041343704 -1.4705904
-0.030673536 -0.5120553 1.1930857 0.80764943 0.9826441 0.5763762 0.9186108 2.0035732
0.24967514 -1.3956435 0.34369034 0.96294683 -0.704178 -0.17923702 -0.9495897 0.97220117
0.026658578 3.0084682 -0.26502112 -1.4786074 -0.9653854 1.548563 0.51176393 1.3353099
-0.15157408 -0.41250637 -0.21160567 0.84431654 -0.10807708 0.240962 1.2307687 0.5299106
-0.7373634 -1.6410937 2.144976 -0.9409715 0.4569386 2.0696955 1.0119836 -0.20527679
00000000: 4496 86bf 30cc 9ebf a811 5fc0 ff74 34c0
00000010: f171 463f ee03 ecbf 87de 1c3d f7e1 b03f
00000020: ab15 163e e8c4 6c3f bcbf 353f 07f9 c7be
00000030: 3e0d e4bd e22c 2f3e 95da 493f 96cc 1c3f
00000040: 7416 6ebf c49f ee3e 0da9 e23f 7dcd f43f
00000050: fc7a c93d 4d99 56bf bfa3 383e 7d86 e6be
00000060: 17c3 323f b3a0 e03e e3df 7f3f 1d39 1abf
00000070: b5ac 28bf 6d71 01c0 58ee 0bbf 716e d33e
00000080: ee4d 9abf adcc dcbe d53e 3b3f 8c98 563f
00000090: 1a02 86be d437 9abf be91 8c3f 3db2 06bf
000000a0: b8b6 073f d071 10bf 45c8 493f 4921 9cbf
000000b0: 22ff 37bf 4f76 02bf 87bc ec3e 929a ffbf
000000c0: 8be7 2fbd 851e a93f 008a a13f 5dee d33f
000000d0: 33e4 1540 d31f 2b40 8bac 123e d99b 2c3f
000000e0: a07b 03bf 4e42 18be 4ddc 003f 82cc 283f
000000f0: 0a81 eabe d9cc 1b3e 5dae 993f 8c50 8c3f
00000100: 29f6 6abf 05bf 84bf cd26 97bf 9639 8d3e
00000110: 6da5 eabe b0cc 743e 8dce ba3f 471f 85bf
00000120: 5992 37bf c0a9 7b3f 9c51 33be a8ea dabe
00000130: e4a9 3f3f c390 a8bf 62c5 9c3f cb7c 80bf
00000140: 5b31 7d3d 4ed7 463f 58c9 d53e 9ff6 87bf
00000150: dd04 2e3f a956 0840 3f32 c93f 5469 c43f
00000160: bddd 023f 98b1 f5bf 1f33 833f 1742 493e
00000170: a1dc 173f 9b34 c2bf 2a6b 6c3d b083 803e
00000180: 9c37 353f b470 5c3f adde 12be 5b52 8a3f
00000190: d59d 893e 9b8d 9ebf 5872 783f a8af 65bf
000001a0: 3cbe 713f 79f6 27bf 4578 bb3f 3de0 e3be
000001b0: f5ee 7b3e 3313 aabd 9ff1 a83d e5ae dc3f
000001c0: 00bf 683e 76d8 1cbf 38b2 1abf d8f2 5d3e
000001d0: abb3 b8be 23d1 f9bf 638e f6bf e8d9 323f
000001e0: e156 ae3e c655 df3e 785b 803f 2ff1 81bf
000001f0: 555d 673f 5956 0d3f 0458 29bd 4e3c bcbf
00000200: 1147 fbbc 0e16 03bf 08b7 983f 1dc2 4e3f
00000210: 908e 7b3f 648d 133f 142a 6b3f 8b3a 0040
00000220: d7aa 7f3e 72a4 b2bf 2ef8 af3e af83 763f
00000230: 0245 34bf e989 37be 5018 73bf 2de2 783f
00000240: 1763 da3c be8a 4040 d9b0 87be 0243 bdbf
00000250: 7f23 77bf 5037 c63f f602 033f 6feb aa3f
00000260: 3c36 1bbe 0934 d3be 28af 58be 2125 583f
00000270: 8457 ddbd bebe 763e d489 9d3f 39a8 073f
00000280: d9c3 3cbf 5c0f d2bf 4947 0940 82e3 70bf
00000290: dbf3 e93e e475 0440 ae88 813f 1434 52be

weight f4 [448, 8]
-0.4643621 3.2404125 -2.776542 0.34251922 0.23435202 -0.6073587 -0.12820633 -0.5550354
-0.853708 -2.8770561 0.98913884 1.68171 -2.9605563 -2.7124543 0.8844247 -2.5829816
-0.039489623 0.9213003 0.19896916 -0.77452034 -0.09662756 -1.0219123 0.7099961 0.35126972
0.55862916 -0.78134274 -1.3143699 -0.12104036 -0.27440828 -0.22557881 0.80211204 -0.46092346
1.3820904 -0.10595759 -0.25890574 -0.15377274 -1.546347 -1.4651428 1.2437924 -0.5215799
0.81147736 3.0611565 -0.34583405 0.68757075 0.65482193 -0.030374784 1.2353134 0.011000581
-0.34845045 1.3596921 0.79186416 1.9933716 -1.3726107 -0.6172292 -1.3764724 0.2880501
1.7513342 -0.6075149 -1.1268475 1.325894 0.62893295 1.5486386 1.7276821 -0.52738917
1.3603967 -2.1859171 -0.38227606 0.17255972 0.3748192 -0.7644644 0.7559285 2.65516
-0.22103775 0.8910163 -0.25836506 -0.90968555 -1.5582417 0.6009825 -1.5952588 -0.33231744
-0.16435738 -0.56620294 -1.2333401 0.32856837 0.99156713 -1.202736 -1.0223148 0.85331076
0.5214754 0.549258 1.5609598 0.13699804 1.3196368 -1.6103717 1.4079217 1.4129368
1.2081739 0.12686543 0.040382136 -0.45455325 1.0278271 -0.8153305 0.47237584 0.6706162
0.9772815 -0.059437923 0.2822128 -1.7034423 1.4475195 0.2853751 0.9012551 -1.420276
2.2393 0.20861068 1.8385884 1.9531568 -0.19726096 1.3777598 1.5595255 -1.0890541
1.1783713 -2.8033593 -0.06880257 -0.6831845 -0.92862684 0.664708 -0.72659725 0.38919443
-0.32905218 1.5825697 0.28084612 1.3915683 0.52904797 1.4285132 0.2913888 -2.9445386
-0.33437908 -1.4852992 -0.99034005 1.1266668 -0.93053985 0.50256455 1.2674829 0.33052757
-1.5517012 -2.5245857 2.483499 1.6262795 0.32242006 0.37538493 -1.5063989 0.26469085
-2.2436202 -2.4447193 0.5093576 1.4266262 -1.0536069 -2.0730736 -3.2212045 -2.9803283
0.39748493 0.15142469 -0.44448072 0.8911275 -0.35314813 -0.13131498 -0.047973093 -0.09125052
-0.8760836 -1.434232 -3.2370617 2.029072 1.6720163 0.1950629 -1.9828289 -0.71101415
-0.019012593 0.301109 -0.2845733 -2.1284168 0.0657078 0.6763148 1.3078257 -0.3885923
-0.6376612 0.44303408 -1.3672196 -0.6469031 0.24793203 -0.85871327 0.56970006 -1.2728993
-1.9069521 -2.6540358 -1.7426361 -1.1786164 0.15158921 -1.9392129 -3.0328658 0.6038449
0.6760317 -0.7861484 -0.7136862 1.0326294 -1.7857288 0.7844624 2.2175605 -0.85914546
-0.74648094 0.049310956 -2.4253228 2.5751972 0.3947895 -1.6531397 0.17537294 0.67787
-2.1780188 -0.019045336 0.85943365 -0.13436761 0.46040606 -2.0822177 -1.9556291 -2.916872
0.58439386 1.0303668 0.4732324 -0.7896709 -0.29398158 0.040973924 0.14631338 -0.40067512
0.7553091 0.23107369 -1.7505767 0.23643534 -1.9789517 -0.35056904 1.6018851 1.2889622
-1.5537285 0.15373285 -1.9032376 0.6000695 -1.3567287 1.9543366 2.1480181 -0.9987594
-0.19260792 -0.3238598 1.2870698 0.48645926 0.18161835 -1.2870508 -1.52511 1.2559996
00000000: dfc0 edbe eb62 4f40 ddb2 31c0 ae5e af3e
00000010: faf9 6f3e dc7b 1bbf 8548 03be cd16 0ebf
00000020: 9c8c 5abf b021 38c0 3438 7d3f 4642 d73f
00000030: c179 3dc0 da98 2dc0 a869 623f 924f 25c0
00000040: dfbf 21bd 56da 6b3f 92be 4b3e f746 46bf
00000050: ace4 c5bd 06ce 82bf 4ec2 353f a0d9 b33e
00000060: 5202 0f3f 1406 48bf 463d a8bf 02e4 f7bd
00000070: 3e7f 8cbe 22fe 66be 3757 4d3f 29fe ebbe
00000080: 57e8 b03f 4b00 d9bd 4b8f 84be 9a76 1dbe
00000090: b3ee c5bf cd89 bbbf 9734 9f3f 4386 05bf
000000a0: fbbc 4f3f fde9 4340 2911 b1be a304 303f
000000b0: 69a2 273f 8ad4 f8bc c01e 9e3f c83b 343c
000000c0: 1968 b2be 640a ae3f 9cb7 4a3f cd26 ff3f
000000d0: b5b1 afbf bc02 1ebf 3f30 b0bf 4d7b 933e
000000e0: b82b e03f 1986 1bbf 8a3c 90bf e5b6 a93f
000000f0: c001 213f ca39 c63f b024 dd3f fa02 07bf
00000100: 7b21 ae3f 11e6 0bc0 b0b9 c3be 7fb3 303e
00000110: 4de8 bf3e f0b3 43bf 8884 413f 24ee 2940
00000120: b857 62be a519 643f 6d48 84be 27e1 68bf
00000130: 7774 c7bf fdd9 193f 7131 ccbf 8325 aabe
00000140: 4d4d 28be adf2 10bf 17de 9dbf 1d3a a83e
00000150: 58d7 7d3f 41f3 99bf 36db 82bf 9372 5a3f
00000160: 697f 053f 2c9c 0c3f 88cd c73f 3749 0c3e
00000170: dce9 a83f a920 cebf c736 b43f 1ddb b43f
00000180: 71a5 9a3f 03e9 013e bd67 253d 34bb e8be
00000190: d78f 833f 80b9 50bf 3fdb f13e 81ad 2b3f
000001a0: 1f2f 7a3f 2e75 73bd 327e 903e 660a dabf
000001b0: 5248 b93f af1c 923e a7b8 663f 9bcb b5bf
000001c0: b150 0f40 0a9e 553e dd56 eb3f 0b01 fa3f
000001d0: c7fe 49be 6f5a b03f 889e c73f 2066 8bbf
000001e0: dfd4 963f 3d6a 33c0 5de8 8cbd 2ee5 2ebf
000001f0: 7dba 6dbf 4e2a 2a3f 4702 3abf 7e44 c73e
00000200: 8779 a8be a591 ca3f 10cb 8f3e e91e b23f
00000210: b06f 073f 85d9 b63f ea30 953e 5273 3cc0
00000220: bc33 abbe 491e bebf ed86 7dbf 9e36 903f
00000230: dc37 6ebf 12a8 003f e13c a23f e93a a93e
00000240: 259e c6bf d092 21c0 a6f1 1e40 ed29 d03f
00000250: 3e14 a53e 7432 c03e aed1 c0bf 8f85 873e
00000260: 7997 0fc0 4876 1cc0 4265 023f b09b b63f
00000270: 97dc 86bf 3dad 04c0 3728 4ec0 b3bd 3ec0
00000280: 2583 cb3e 130f 1b3e fa92 e3be ef20 643f
00000290: d5cf b4be 6f77 06be 6f7f 44bd 8de1 babd
000002a0: 0447 60bf ea94 b7bf 052c 4fc0 51dc 0140
000002b0: a104 d63f 92be 473e 56cd fdbf 0605 36bf
000002c0: 4cc0 9bbc f52a 9a3e 97b3 91be fb37 08c0
000002d0: d091 863d f722 2d3f d566 a73f 92f5 c6be
000002e0: c43d 23bf 5dd5 e23e 0d01 afbf 719b 25bf
000002f0: e5e1 7d3e a2d4 5bbf ddd7 113f 5dee a2bf
00000300: 0217 f4bf b9db 29c0 b30e dfbf e7dc 96bf
00000310: 343a 1b3e 2138 f8bf 791a 42c0 9495 1a3f
00000320: 6a10 2d3f 0641 49bf 24b4 36bf 332d 843f
00000330: c392 e4bf 87d2 483f 83ec 0d40 f5f0 5bbf
00000340: 6019 3fbf 49fa 493d 7d38 1bc0 08d0 2440
00000350: d921 ca3e 159a d3bf f794 333e e388 2d3f
00000360: a964 0bc0 f704 9cbc d803 5c3f aa97 09be
00000370: 58ba eb3e 0e43 05c0 0e52 fabf 08ae 3ac0
00000380: d69a 153f 0fe3 833f 844b f23e df27 4abf
00000390: c184 96be 46d4 273d 2dd3 153e 4a25 cdbe
000003a0: f05b 413f 959e 6c3e e612 e0bf 1b1c 723e
000003b0: 4a4e fdbf c97d b3be 920a cd3f b7fc a43f
000003c0: 93e0 c6bf 256c 1d3e 4a9d f3bf 289e 193f
000003d0: 49a9 adbf b427 fa3f 2179 0940 b2ae 7fbf
000003e0: 033b 45be f4d0 a5be b4be a43f 3011 f93e
000003f0: 29fa 393e 15be a4bf ce36 c3bf 98c4 a03f

weight f4 [64, 20]
-0.07663561 -0.7443405 -2.4169562 -1.2600193 -0.050303165 1.1372204 0.41352755 0.2794873
-0.55575085 0.030478919 1.1116486 -0.4974834 0.2559841 -0.05233115 -5.3105044 3.4412107
-0.3810019 -0.6796394 1.6639357 1.0471528 -0.95397985 0.4914529 -0.388772 -0.8632756
-0.41553682 0.8446024 0.58483535 -0.8099314 0.035416435 -0.5339345 -0.12543565 -0.0045913938
0.0658943 -0.528143 0.1764964 1.0025927 -0.72647 0.73549724 1.0343858 -1.200897
-0.6577186 -0.63665223 -0.806222 1.0704608 0.25212368 -0.54435503 -0.3719295 0.3186002
-0.85087514 -2.1942847 0.21437785 -1.732979 -8.960739 -3.4220753 -0.3802556 1.3328834
1.1164968 0.65687066 -0.7277519 -0.874204 1.1248146 1.4634469 -0.65021443 0.40335673
0.62918866 0.9559291 -0.628637 0.5840283 -0.31288528 2.1320012 1.1141002 -0.19308141
-3.3229384 -2.9668124 0.008320909 0.48153198 -3.539513 0.36090508 -0.7263118 1.201967
-1.4503919 0.92442226 -0.41109905 -0.17500953 -1.1434852 0.3111718 -0.42032227 -0.36388576
1.8057353 0.68627703 -0.13711864 0.16950412 0.6633088 -0.49518985 -3.9688213 3.8860958
2.3008404 0.46086317 0.05346714 0.40194842 -0.811866 0.6261522 -1.1936867 -0.1789788
-0.06865342 0.122179076 -0.019023396 -0.70654595 -0.28834262 -0.36702728 0.18887351 -0.20450254
-1.8256638 0.25276065 0.98430634 1.5314974 -0.115746096 1.2913657 -0.5940867 -0.7100991
-0.9495759 1.6476486 1.2899097 -1.5962938 -1.0398823 1.3785216 -0.08804847 -0.09922923
0.9714431 -1.2692686 1.0909001 1.0565351 1.4739321 1.1960486 -0.5980694 3.0230963
0.8786125 1.3936708 0.5876742 -0.20674309 -0.14091274 0.015913446 -0.85227776 -0.6377068
-0.7279866 0.4777351 0.43812746 0.5594285 0.15005785 -0.264466 0.012778345 0.3448001
2.5758834 -1.120839 0.98546755 1.389879 -1.600616 0.8110234 -0.52004236 0.97691596
-0.5089503 -0.6996716 -0.43300003 -1.4955753 0.43814322 0.3995804 0.43407255 -0.91583586
-0.725414 -0.4138349 -0.04429108 0.28924415 -2.4692523 -1.7010298 2.7897224 0.64120644
-1.4819037 1.5738747 0.540469 -1.3497851 0.7155354 -0.3910886 -0.15117887 -0.49569708
-0.963954 0.06658359 -0.82455856 0.71840143 -0.37616733 -0.363144 1.3878869 -1.4266458
-0.843797 0.8233338 -4.1769977 3.6830518 0.8307241 0.033890728 0.9921939 0.6295367
-0.7701932 0.79218614 -0.7413624 0.7217243 -0.20025933 0.18251587 -0.8840954 -1.6828133
0.5938051 2.2425132 -0.065177806 -1.275744 -0.4571522 1.6289494 -2.3319855 2.8562896
1.9618344 0.6211974 -0.9308974 0.6338041 1.8411518 0.8602772 -0.7877394 0.5897762
-0.47732425 0.9473948 0.61863 0.27139178 0.41866127 -0.30331823 0.65566844 -0.21313806
1.027453 -0.68263674 1.1638821 -0.76564986 -4.172185 0.3756907 0.12887354 -1.199588
-0.94425994 0.9523547 -0.9568692 -0.9951437 0.06958482 0.4082858 0.21149118 -0.8016756
0.18044941 -0.4114152 -0.38719162 -0.32026154 -1.9781692 -0.027018303 1.789901 2.2234416
00000000: 21f3 9cbd 198d 3ebf 69af 1ac0 5048 a1bf
00000010: b10a 4ebd 7090 913f e2b9 d33e f618 8f3e
00000020: b045 0ebf edae f93c 804a 8e3f 25b6 febe
00000030: 5910 833e 3059 56bd a7ef a9c0 cc3c 5c40
00000040: ae12 c3be d9fc 2dbf d8fb d43f 1a09 863f
00000050: 0638 74bf b79f fb3e 200d c7be a1ff 5cbf
00000060: 3ec1 d4be dd37 583f c5b7 153f aa57 4fbf
00000070: d310 113d eeaf 08bf 3472 00be 6773 96bb
00000080: 97f3 863d 6134 07bf 79bb 343e f554 803f
00000090: f0f9 39bf 8c49 3c3f c166 843f feb6 99bf
000000a0: 3f60 28bf a4fb 22bf 9164 4ebf dc04 893f
000000b0: 5b16 813e da5a 0bbf 8b6d bebe 911f a33e
000000c0: f4d2 59bf 296f 0cc0 de85 5b3e 42d2 ddbf
000000d0: 305f 0fc1 4803 5bc0 ddb0 c2be ec9b aa3f
000000e0: 5ee9 8e3f ad28 283f f34d 3abf d5cb 5fbf
000000f0: edf9 8f3f 3a52 bb3f 7474 26bf c684 ce3e
00000100: 8212 213f c5b7 743f 5bee 20bf e182 153f
00000110: 8032 a0be b572 0840 d69a 8e3f 22b7 45be
00000120: 06ab 54c0 41e0 3dc0 6c54 083c 5c8b f63e
00000130: 6287 62c0 8dc8 b83e 92ef 39bf 0eda 993f
00000140: 71a6 b9bf f0a6 6c3f 937b d2be b335 33be
00000150: b95d 92bf e951 9f3e 7b34 d7be 3c4f babe
00000160: 5622 e73f daaf 2f3f d468 0cbe 7d92 2d3e
00000170: 9bce 293f 8689 fdbe 2b01 7ec0 cbb5 7840
00000180: f840 1340 42f6 eb3e 5c00 5b3d 2fcc cd3e
00000190: 73d6 4fbf 834b 203f baca 98bf 3846 37be
000001a0: 2a9a 8cbd 0639 fa3d f4d6 9bbc 32e0 34bf
000001b0: a5a1 93be 00eb bbbe 0f68 413e 1d69 51be
000001c0: 5aaf e9bf d869 813e 80fb 7b3f 1b08 c43f
000001d0: 4a0c edbd 794b a53f 1116 18bf 0ec9 35bf
000001e0: 6817 73bf 26e6 d23f c31b a53f 5b53 ccbf
000001f0: dd1a 85bf 6573 b03f c252 b4bd b238 cbbd
00000200: 7fb0 783f 6577 a2bf 9da2 8b3f 8b3c 873f
00000210: cfa9 bc3f 1f18 993f 141b 19bf 697a 4140
00000220: c0ec 603f ce63 b23f d171 163f 76b4 53be
00000230: 6e4b 10be ea5c 823c e02e 5abf c140 23bf
00000240: 545d 3abf b299 f43e 3e52 e03e b536 0f3f
00000250: c4a8 193e 1668 87be 435c 513c a489 b03e
00000260: 46db 2440 a777 8fbf 9a47 7c3f 8ee7 b13f
00000270: fce0 ccbf 3b9f 4f3f 7f21 05bf 2a17 7a3f
00000280: 914a 02bf ae1d 33bf 2eb2 ddbe 036f bfbf
00000290: 4f54 e03e cd95 cc3e c23e de3e 3874 6abf
000002a0: bbb4 39bf 2be2 d3be 906a 35bd cf17 943e
000002b0: 3b08 1ec0 58bb d9bf d08a 3240 1b26 243f
000002c0: 05af bdbf ba74 c93f 2d5c 0a3f c2c5 acbf
000002d0: 542d 373f c43c c8be a2ce 1abe 02cc fdbe
000002e0: b0c5 76bf fa5c 883d 4516 53bf 28e9 373f
000002f0: 0199 c0be 03ee b9be 47a6 b13f 549c b6bf
00000300: 1503 58bf 01c6 523f f7a9 85c0 1fb7 6b40
00000310: 56aa 543f 01d1 0a3d 6b00 7e3f 5129 213f
00000320: 622b 45bf b6cc 4a3f edc9 3dbf ecc2 383f
00000330: c810 4dbe 71e5 3a3e 1354 62bf 6d66 d7bf
00000340: 9c03 183f 5685 0f40 f17b 85bd 944b a3bf
00000350: da0f eabe 6a81 d03f 403f 15c0 73cd 3640
00000360: 641d fb3f cb06 1f3f 4b4f 6ebf fc40 223f
00000370: ddaa eb3f 203b 5c3f 4aa9 49bf 93fb 163f
00000380: d863 f4be 7788 723f 895e 1e3f ddf3 8a3e
00000390: c55a d63e 874c 9bbe e3d9 273f dd40 5abe
000003a0: 9483 833f 48c1 2ebf 17fa 943f a101 44bf
000003b0: 8a82 85c0 885a c03e 6df7 033e 198c 99bf
000003c0: 05bb 71bf 85cd 733f 61f5 74bf bdc1 7ebf
000003d0: 7c82 8e3d d60a d13e 2591 583e 9d3a 4dbf
000003e0: bbc7 383e 03a5 d2be fb3d c6be 52f9 a3be
000003f0: a634 fdbf 7d55 ddbc 7a1b e53f de4c 0e40

bias f4 [64]
-0.035064552 -0.33035037 -2.689712 0.48837563 0.4337013 -2.7601647 1.7594103 0.25630236
-0.3296591 1.1082518 -0.9391739 -0.36431554 -0.6983635 0.26274523 -2.7345219 -0.70316225
-2.3723512 1.9830934 0.22698003 -0.85833675 -2.0543275 -0.016429907 1.0723869 1.2112564
0.52721393 0.36501923 1.1140031 -0.09437646 -1.5300757 -1.8102794 -2.6261678 0.8595073
0.6354801 0.58211845 1.2741209 0.94433045 0.5055979 -0.5976525 0.7958639 0.82465065
1.7075835 -3.7282126 -0.9680203 -2.1165 -1.0540252 -2.8062015 1.8953828 -1.4795455
0.6224529 0.8694864 -0.49322933 0.80169946 -0.6877941 -0.5103782 -2.3311822 -0.29644698
-1.1548496 0.6719702 -0.7204717 0.24121879 -1.2227339 -1.6683995 -0.48812652 1.9796532
00000000: d99f 0fbd af23 a9be 3e24 2cc0 5f0c fa3e
00000010: 190e de3e 8aa6 30c0 5b34 e13f 103a 833e
00000020: 14c9 a8be 32db 8d3f b36d 70bf 9187 babe
00000030: f3c7 32bf 8b86 863e 6802 2fc0 7102 34bf
00000040: 9ad4 17c0 01d6 fd3f 746d 683e f5bb 5bbf
00000050: 1a7a 03c0 0398 86bc f943 893f 730a 9b3f
00000060: 7ef7 063f cde3 ba3e a797 8e3f 7248 c1bd
00000070: 85d9 c3bf 3cb7 e7bf 2213 28c0 ac08 5c3f
00000080: d3ae 223f b705 153f 6516 a33f a4bf 713f
00000090: dd6e 013f c1ff 18bf bdbd 4b3f 4e1c 533f
000000a0: 1992 da3f 099b 6ec0 2ed0 77bf bc74 07c0
000000b0: 4cea 86bf ce98 33c0 e79b f23f bf61 bdbf
000000c0: 1359 1f3f a996 5e3f 8e88 fcbe 2d3c 4d3f
000000d0: 4613 30bf 25a8 02bf 1732 15c0 e6c7 97be
000000e0: 1dd2 93bf 3d06 2c3f d570 38bf 0f02 773e
000000f0: 8b82 9cbf 1d8e d5bf b8eb f9be 4765 fd3f

weight f4 [128, 64]
-0.009904991 -0.06047191 -0.019765832 -0.06578226 -0.10397716 -0.026037743 -0.06750702 0.007888063
-0.01819328 0.020731699 -0.071498804 0.017724937 0.013944745 -0.054759294 -0.07042748 -0.07001657
-0.16880251 -0.06627577 -0.0076601673 -0.033376012 -0.16580841 -0.016600095 0.019770935 -0.07366294
-0.20060848 -0.17469783 0.03860049 0.010287413 0.014981841 -0.041171595 -0.13339928 -0.09812406
-0.06554299 -0.13197812 -0.083729334 0.01226363 -0.17195866 -0.16454646 -0.15300137 -0.12972076
-0.070951864 0.007646591 -0.12836173 -0.0897149 0.0007152316 -0.15206045 -0.12017943 -0.002039216
-0.16865428 -0.19469331 -0.03857934 -0.10459994 -0.19803719 -0.061675195 -0.06565669 -0.05547303
-0.042826846 -0.17657343 -0.097647496 -0.045004983 -0.08347693 -0.06607398 -0.14290296 -0.12355594
0.2596071 0.06539816 -0.7097911 0.4859079 0.6782734 -0.29439223 1.0051267 -0.052678075
0.19171502 0.7407499 0.5741063 -0.27814254 0.07082571 0.16293374 -1.7302005 0.6417069
-0.8254009 1.4343309 0.23863037 -0.43365967 -0.22487466 0.3398313 0.48762098 1.0946225
0.95636106 0.1501492 0.57475364 0.9421286 -0.083233714 0.6641238 -0.06605257 0.014853879
-0.07558795 0.3394152 -0.39564118 1.4210315 0.22353204 -1.2692335 0.7868773 1.8638558
0.6339372 -3.7667117 -0.12922026 0.12140492 -0.10245971 0.38916185 0.24661711 -2.2801628
0.18328503 0.44335583 -0.08841229 0.09322086 0.3346541 0.11198905 -0.402907 0.4413279
-0.27856532 0.07477333 0.32347423 0.04083383 -0.090871744 -0.8905475 -0.15129255 1.1244081
0.4164741 0.017905263 -0.10217434 0.63009346 0.5907236 -0.24430962 0.93087935 -0.07390042
0.1724072 0.8950591 0.76905966 0.23098068 0.1258103 0.49529698 -1.3776243 0.7191797
-0.41863394 1.3162526 0.033751883 -0.499703 0.1147179 0.33087915 0.5223489 1.0225576
0.93488926 0.05671183 0.5971591 0.78299445 -0.061191726 0.64954597 -0.116502374 0.17260149
0.16951588 0.63409865 -0.25528905 1.5517937 0.3390127 -1.0175059 1.023607 1.8776244
0.5952604 -3.242039 0.030663243 0.00088508613 0.132338 0.101333365 0.30198678 -1.8069338
0.15607816 0.5444503 0.042884994 0.36290753 0.53924406 0.53327733 -0.2869868 0.25074127
0.07523279 0.104477264 0.3599349 0.32546094 0.10733903 -0.18739104 0.20233048 1.1024958
0.51846933 0.12936805 0.048695616 0.70379394 0.68886566 -0.006253356 1.1419373 0.0003258576
0.5142238 0.8670478 0.7598889 0.19631737 0.3512901 0.4431389 -1.4246076 0.8418436
-0.43282068 1.280692 0.17476371 -0.4151879 -0.056332096 0.61598974 0.6709937 1.2521827
1.1074401 0.24589206 0.6908737 1.1520537 0.121173635 0.7743664 -0.17908928 0.33408922
0.24979068 0.7268644 -0.09466026 1.657808 0.51374876 -1.0240922 1.093283 1.9253906
0.7555666 -3.4329813 0.07505498 0.23141448 0.18209355 0.12595753 0.50649446 -1.8350762
0.26213628 0.6080424 0.20369299 0.29371175 0.48948628 0.46543753 -0.3418961 0.37751332
0.2243321 0.30777958 0.44209653 0.33184734 0.15612122 -0.18193665 0.25882164 1.1310902
00000000: 8b48 22bc 65b1 77bd f4eb a1bc d9b8 86bd
00000010: faf1 d4bd 1b4d d5bc 1f41 8abd ef3c 013c
00000020: 130a 95bc 86d5 a93c f76d 92bd e333 913c
00000030: 8078 643c 484b 60bd 483c 90bd d964 8fbd
00000040: 91da 2cbe 97bb 87bd 2402 fbbb 49b5 08bd
00000050: aec9 29be ecfc 87bc a8f6 a13c 98dc 96bd
00000060: 4f6c 4dbe fde3 32be 8c1b 1e3d 8a8c 283c
00000070: 6576 753c 8ca3 28bd d299 08be 44f5 c8bd
00000080: 673b 86bd 4625 07be 497a abbd 64ed 483c
00000090: ee15 30be de7e 28be 64ac 1cbe 85d5 04be
000000a0: 364f 91bd 4190 fa3b 4271 03be 72bc b7bd
000000b0: 617e 3b3a bcb5 1bbe a220 f6bd 5ea4 05bb
000000c0: b5b3 2cbe af5d 47be 5f05 1ebd 7e38 d6bd
000000d0: 43ca 4abe 219f 7cbd 0477 86bd b037 63bd
000000e0: 346b 2fbd aacf 34be 69fb c7bd 2557 38bd
000000f0: f4f5 aabd cb51 87bd 2755 12be e60a fdbd
00000100: 39eb 843e 78ef 853d dfb4 35bf ecc8 f83e
00000110: 53a3 2d3f 94ba 96be fea7 803f f7c4 57bd
00000120: f150 443e c9a1 3d3f a1f8 123f b368 8ebe
00000130: 120d 913d 1ad8 263e 3677 ddbf e746 243f
00000140: 794d 53bf 2898 b73f 855b 743e a408 debe
00000150: 8b45 66be 5efe ad3e 75a9 f93e 971c 8c3f
00000160: 14d4 743f b6c0 193e 0e23 133f 572f 713f
00000170: 7076 aabd 0404 2a3f 9246 87bd af5d 733c
00000180: dbcd 9abd d4c7 ad3e 7b91 cabe 5ce4 b53f
00000190: 95e5 643e 3e76 a2bf ca70 493f d492 ee3f
000001a0: b549 223f ce11 71c0 5152 04be 25a3 f83d
000001b0: 65d6 d1bd 3940 c73e 3289 7c3e 30ee 11c0
000001c0: 12af 3b3e 89ff e23e 8111 b5bd 94ea be3d
000001d0: c857 ab3e 845a e53d d449 cebe bbf5 e13e
000001e0: 1da0 8ebe c222 993d 6a9e a53e 6041 273d
000001f0: f71a babd ecfa 63bf 6fec 1abe 9bec 8f3f
00000200: 183c d53e 0fae 923c c840 d1bd ce4d 213f
00000210: a939 173f 4d2c 7abe 1c4e 6e3f 1a59 97bd
00000220: 838b 303e 9822 653f 18e1 443f 3386 6c3e
00000230: 6ad4 003e 9197 fd3e fe55 b0bf 291c 383f
00000240: 3057 d6be f77a a83f 6a3f 0a3d 12d9 ffbe
00000250: 38f1 ea3d fe68 a93e a8b8 053f 2be3 823f
00000260: e754 6f3f aa4a 683d 6bdf 183f 5372 483f
00000270: 2da4 7abd a548 263f cc98 eebd 72be 303e
00000280: 9295 2d3e 4a54 223f 3fb5 82be 2da1 c63f
00000290: 1393 ad3e a23d 82bf 8e05 833f ff55 f03f
000002a0: fc62 183f 917d 4fc0 7b31 fb3c 2005 683a
000002b0: 9d83 073e de87 cf3d 039e 9a3e 9b49 e7bf
000002c0: f4d2 1f3e 1861 0b3f 2da8 2f3d 04cf b93e
000002d0: e60b 0a3f dd84 083f efef 92be 2961 803e
000002e0: a613 9a3d 2df8 d53d 6349 b83e d1a2 a63e
000002f0: 91d4 db3d 70e3 3fbe b92f 4f3e 951e 8d3f
00000300: 68ba 043f 0f79 043e 0e75 473d d72b 343f
00000310: 8059 303f f4e8 ccbb 002b 923f ded7 aa39
00000320: 2ca4 033f d8f6 5d3f 1488 423f 6c07 493e
00000330: 4cdc b33e 1ae3 e23e 8b59 b6bf 1083 573f
00000340: ac9a ddbe b7ed a33f 42f5 323e 8293 d4be
00000350: 7cbc 66bd 81b1 1d3f 3ec6 2b3f 8647 a03f
00000360: 99c0 8d3f 21cb 7b3e 19dd 303f 7f76 933f
00000370: e229 f83d e03c 463f 2e63 37be be0d ab3e
00000380: 21c9 7f3e c913 3a3f 3ddd c1bd 0d33 d43f
00000390: 0a85 033f 7415 83bf b3f0 8b3f 3373 f63f
000003a0: d06c 413f f7b5 5bc0 6db6 993d ebf7 6c3e
000003b0: bb76 3a3e 03fb 003e 9fa9 013f c7e3 eabf
000003c0: ba36 863e aba8 1b3f e594 503e 6361 963e
000003d0: f29d fa3e d44d ee3e 010d afbe 6d49 c13e
000003e0: 50b7 653e 4995 9d3e 7a5a e23e e5e7 a93e
000003f0: 3ede 1f3e 9a4d 3abe 4584 843e 90c7 903f

bias f4 [128]
-0.05919945 1.5841125 1.4469705 1.5610415 -0.07596479 -0.1284899 1.3341463 1.3788131
1.3472064 1.4509243 1.4588577 1.3934995 1.4170462 1.4545807 1.355297 1.3692833
-0.038967952 1.4967897 1.5233922 1.4581342 1.3760219 1.3749559 1.4473528 -0.16524222
1.4101789 0.032343507 1.4415861 -0.14042535 0.018217752 1.394128 0.004441285 -0.37391385
1.4184722 1.3772327 1.3269345 1.4476691 0.038006518 0.042928465 -0.08210791 1.544243
0.039429754 -0.13315125 1.4422746 1.4901328 1.5015934 1.4871523 1.6228391 -0.05815145
1.3093599 -0.054712962 1.2624974 1.5521464 1.3520741 -0.03765414 -0.19006856 1.4893144
1.5197747 1.3769865 1.4684238 1.5573977 1.354341 1.346371 1.4723328 -0.013623695
1.3872894 -0.15181243 1.4183805 0.028593887 -0.019410368 1.4476794 1.4575627 1.4519073
-0.14673322 1.3524845 1.4797566 1.6200532 1.4620901 1.3205683 -0.066566765 -0.05995331
-0.12960222 1.6690931 1.313975 0.08142456 -0.18338566 -0.12193247 1.335304 -0.07437508
-0.111939125 1.4756868 0.040627167 1.4127924 1.5429536 -2.3512623 -0.06628613 0.043909635
-0.11017043 1.5507839 1.5789593 -0.05056674 1.5034546 0.004464718 1.4414262 -0.019470105
1.4408925 0.002274126 1.5350114 1.2962552 3.3595147 1.5133017 -0.16904281 1.4120626
1.5058216 -0.027747925 1.2356987 1.5047144 1.3966656 1.4782908 1.4712211 -0.175235
-1.1190722 -0.13680093 1.535552 1.6878904 1.5577147 1.4940261 1.4716767 1.563997
00000000: 1f7b 72bd 33c4 ca3f 5436 b93f 35d0 c73f
00000010: 6e93 9bbd db92 03be 4ec5 aa3f f37c b03f
00000020: 4271 ac3f e3b7 b93f d9bb ba3f 315e b23f
00000030: c561 b53f b32f ba3f 5f7a ad3f ad44 af3f
00000040: dc9c 1fbd ce96 bf3f 84fe c23f 24a4 ba3f
00000050: 7c21 b03f 8efe af3f db42 b93f 4235 29be
00000060: be80 b43f a07a 043d e585 b83f aacb 0fbe
00000070: 653d 953c c972 b23f 3388 913b a371 bfbe
00000080: 7f90 b53f 2949 b03f fdd8 a93f 394d b93f
00000090: b9ac 1b3d c2d5 2f3d 3128 a8bd c1a9 c53f
000000a0: 1881 213d cd58 08be 749c b83f acbc be3f
000000b0: 3634 c03f 025b be3f 31b9 cf3f 3730 6ebd
000000c0: 1b99 a73f b31a 60bd 8499 a13f bcac c63f
000000d0: c410 ad3f 3a3b 1abd 55a1 42be dba1 be3f
000000e0: fa87 c23f 1841 b03f 50f5 bb3f cf58 c73f
000000f0: 0c5b ad3f e355 ac3f 6775 bc3f eb35 5fbc
00000100: b392 b13f b874 1bbe 7e8d b53f ba3d ea3c
00000110: 7e02 9fbc 8f4d b93f 6a91 ba3f 19d8 b93f
00000120: 3c41 16be 361e ad3f aa68 bd3f e75d cf3f
00000130: c525 bb3f 6208 a93f 2854 88bd 9a91 75bd
00000140: 72b6 04be d8a4 d53f 5530 a83f ebc1 a63d
00000150: 73c9 3bbe bbb7 f9bd 3eeb aa3f f651 98bd
00000160: 5740 e5bd 4ee3 bc3f ac68 263d 62d6 b43f
00000170: 817f c53f 157b 16c0 06c1 87bd 97da 333d
00000180: 09a1 e1bd 1680 c63f 571b ca3f 121f 4fbd
00000190: 3371 c03f c54c 923b a780 b83f c57f 9fbc
000001a0: 2a6f b83f 8109 153b 417b c43f b1eb a53f
000001b0: 4a02 5740 dfb3 c13f 8f19 2dbe 78be b43f
000001c0: c3be c03f 9e4f e3bc 602b 9e3f 7b9a c03f
000001d0: f0c5 b23f a238 bd3f f950 bc3f ce70 33be
000001e0: c23d 8fbf 8b15 0cbe f88c c43f cb0c d83f
000001f0: 3263 c73f 3f3c bf3f e75f bc3f 0e31 c83f

weight f4 [1, 128]
0.0192234 0.50353104 0.44263488 0.540135 0.057593826 0.01219959 0.35337183 0.58734643
0.41847512 0.49463964 0.521567 0.44353163 0.42985237 0.5331284 0.5216029 0.4727211
0.018974002 0.68858165 0.4928275 0.5036044 0.588257 0.6332464 0.46649283 0.06162151
0.48418045 0.060575586 0.5092776 0.01085192 0.022660315 0.55360293 -0.015333345 -7.1927395
0.5179489 0.5673444 0.37844086 0.59630567 0.037680913 0.0452605 0.023313567 0.59809697
-0.0056869253 0.023397176 0.44979325 0.5997639 0.60487574 0.52904016 0.5922539 0.032471392
0.44040912 0.021735182 0.37805122 0.5566194 0.5021231 0.020121988 0.042320814 0.5093509
0.53878826 0.41816005 0.49410617 0.65730083 0.45400798 0.5090157 0.52903384 0.0110397665
0.37250933 0.004860891 0.47239396 0.049573664 0.051596362 0.6042842 0.5568012 0.5088179
0.036698423 0.45836675 0.54903835 0.5555701 0.6335618 0.35585776 0.04378157 0.03328858
0.03214674 0.6051435 3.8675456 0.070661955 0.022329794 -0.0010228719 0.43609786 0.001638698
0.053594448 0.4680992 0.06020784 0.40548414 0.5059632 -7.434052 0.02253162 0.03245039
0.018254874 0.501747 0.471662 -0.009332057 0.4778288 0.021172285 0.43852785 0.024039516
0.9222187 0.016732503 0.57345396 0.34035087 4.836815 0.48238203 0.0067362827 0.40722862
0.5157128 0.012212435 0.42207673 0.496124 0.5312872 0.55665296 0.53380024 -5.2015104e-05
-5.3320127 0.017023368 0.58832204 0.56421083 0.48029792 0.56609213 0.50329155 0.50084466
00000000: 647a 9d3c 69e7 003f 0aa1 e23e 4a46 0a3f
00000010: 81e7 6b3d cae0 473c 27ed b43e 565c 163f
00000020: 5f42 d63e 6841 fd3e 6a85 053f 9416 e33e
00000030: 9c15 dc3e 1a7b 083f c587 053f 8008 f23e
00000040: 5e6f 9b3c e346 303f e353 fc3e 38ec 003f
00000050: 0398 163f 701c 223f 26d8 ee3e d666 7c3d
00000060: 80e6 f73e 1b1e 783d 0460 023f 40cc 313c
00000070: 20a2 b93c ecb8 0d3f b638 7bbc ec2a e6c0
00000080: 4d98 043f 7c3d 113f 00c3 c13e 7da7 183f
00000090: 4d57 1a3d 1363 393d 18fc be3c e21c 193f
000000a0: 6359 babb 6fab bf3c 4d4b e63e 208a 193f
000000b0: 23d9 1a3f 2d6f 073f f49d 173f b900 053d
000000c0: 4e7d e13e fb0d b23c ee8f c13e 9c7e 0e3f
000000d0: 248b 003f ded6 a43c 9758 2d3d d264 023f
000000e0: 07ee 093f 1319 d63e 7cfb fc3e de44 283f
000000f0: bc73 e83e da4e 023f c36e 073f 23e0 343c
00000100: 8bb9 be3e 1c48 9f3b 9fdd f13e c10d 4b3d
00000110: b556 533d 5fb2 1a3f 868a 0e3f e441 023f
00000120: 1651 163d 0caf ea3e c78d 0c3f d839 0e3f
00000130: 1b31 223f fd32 b63e 4e54 333d 9b59 083d
00000140: 4dac 033d afea 1a3f de85 7740 37b7 903d
00000150: f9ec b63c e311 86ba 3848 df3e 95c9 d63a
00000160: da85 5b3d b3aa ef3e 7f9c 763d 9e9b cf3e
00000170: ce86 013f c1e3 edc0 3b94 b83c b3ea 043d
00000180: 3f8b 953c 7e72 003f af7d f13e 7ce5 18bc
00000190: faa5 f43e 8071 ad3c b986 e03e 85ee c43c
000001a0: 8616 6c3f 9a12 893c e1cd 123f 7842 ae3e
000001b0: 30c7 9a40 c7fa f63e 09bc dc3b 4580 d03e
000001c0: c105 043f aa16 483c 711a d83e f703 fe3e
000001d0: 7002 083f cf80 0e3f 22a7 083f cb2a 5ab8
000001e0: d99f aac0 9774 8b3c 469c 163f 1f70 103f
000001f0: 9ce9 f53e 6aeb 103f b7d7 003f 5b37 003f
