best_model.pt (torch, 156435 bytes, 9 tensors)

embed0.weight f4 [42, 4]
00000000: 90da a83f 9f34 073f 5753 d7bf eb59 6a3f
00000010: 86b2 b0bf f392 e73e 0ae1 993e bf94 f53f
00000020: 00c2 07bf e84d 9c3f 059a 46c0 7cde 0d3f
00000030: e612 afbf 42ed a6bf b591 1cbe a2e2 483f
00000040: 5280 3abf 0a41 343e 3df8 f83f 8f09 603f
00000050: dcf4 d03d fee0 2bbf 8e66 e73d b5a1 a1bf
00000060: 2f61 0a3f 763a 713f 99c7 7fbf 28bb 0e40
00000070: 7b75 a7bf da26 b23e d32c 28bf f42a d73f
00000080: 27ca 4ebf ca67 8b3e 20ef 1a40 6739 933f
00000090: a23b f5bf 73f7 173e b574 2a3f abab 89bf
000000a0: 7eb9 4cbf dddf 2440 6573 953f d507 ddbd
000000b0: a577 0b40 3cae 2240 c3a2 3fc0 1868 303f
000000c0: aa57 2f3f c1ff 753f 7696 a6bf ca1d 3940
000000d0: 2d58 7ec0 88fd 03c0 cf83 46bf 4d56 563f
000000e0: 3291 86bf bf0d eabe d1e5 dcbf 7f76 af3e
000000f0: 3b66 cd3f cbf9 4140 415a 46bf a6a3 2a40
00000100: f6f7 ffbe 6c13 453f 2dff 4b40 3182 5c3f
00000110: ada6 e7be 9e9d 973e 6431 7abe f63a 593f
00000120: e9d0 51bf 1cae e8bd 8ad2 cfbe a07a d6bc
00000130: 0e23 a1bf c5fd a93f 7ef3 023e f561 1240
00000140: f38e 18bf 0faf 69bb 81a5 6fc0 1d8e cc3f
00000150: a13b e2bf 5a73 91be 3c63 1740 f063 0e3f
00000160: ef90 74be d425 253f fa76 463d 9449 a03f
00000170: 98d8 b7bd d8f8 b43d 0937 1cc0 6742 9b3e
00000180: 5ac4 87bf a1f8 dc3e 2173 12c0 d800 6f3f
00000190: a75d 1e3f 5cc8 0240 4066 063e 9265 de3f
000001a0: eb09 083f a599 2940 439f abbf f758 66bd
000001b0: 47e0 1cc0 0cc1 633f 14dd 0bbf 8014 a83f
000001c0: eb9d 9ebf 37d7 173f d1fe 78bf d797 843e
000001d0: 23ba fdbf b767 a6be ea5e c13e d717 3840
000001e0: edf0 97bf 5743 923e 51d2 0ac0 479e a13f
000001f0: 8c28 353f 0635 6640 c575 3cc0 24a6 ba3f
00000200: 9303 93bf 2b65 b73e 3b35 a0bf 4bdd 503f
00000210: dda3 c1be ad41 873f beea b6bf af98 be3f
00000220: fe8a aebf 1403 e73e bc2b b8bf 952f 663f
00000230: 0dad 27be ba59 62bf bf24 fbbf 2df9 51bf
00000240: 143b fbbf ff13 2c40 7057 1ec0 f922 0640
00000250: 1a0e c3bf b9d5 67be 7787 54c0 12cb 5840
00000260: 494a 98bf 79f0 8fbf 0c85 c8bf 994a 08c0
00000270: 1a41 79bf aa90 2bbf a91d 36be f4be 0d40
00000280: 5987 22c0 2c03 d93e 9986 e23f b889 2f3f
00000290: 37ec d0bf 809e 0a3f df3e 7ac0 afc4 8a3e
1.31917 0.5281467 -1.6822308 0.91543454 -1.3804481 0.452293 0.30054504 1.9186019
-0.53030396 1.2211275 -3.1031506 0.5541761 -1.3677642 -1.3041155 -0.15289958 0.78470814
-0.7285205 0.17602935 1.9450756 0.87514585 0.10202953 -0.67140186 0.11298858 -1.2627474
0.5405454 0.9422983 -0.99913937 2.230173 -1.3082727 0.34795266 -0.65693396 1.6809983
-0.8077721 0.27227622 2.420845 1.1501893 -1.9158823 0.14840488 0.6658433 -1.0755514
-0.7997054 2.5761635 1.1675841 -0.107925095 2.1791775 2.5418844 -2.9943092 0.68908834
0.6849314 0.96093374 -1.3014667 2.8924432 -3.9741318 -2.0623493 -0.77544874 0.83725435
-1.051306 -0.45713612 -1.7257634 0.34270093 1.6046823 3.0308712 -0.77481467 2.6662383
-0.49993867 0.7698276 3.1874497 0.86136156 -0.4524435 0.2961244 -0.24432904 0.8485559
-0.81959397 -0.11361334 -0.40590316 -0.026181519 -1.2588823 1.3280569 0.12788197 2.2872288
-0.59593123 -0.0035657322 -3.7444766 1.598087 -1.7674447 -0.2840832 2.3654318 0.5562124
-0.23883413 0.64510846 0.04845331 1.2522454 -0.08976859 0.08836526 -2.440859 0.30324098
-1.0606797 0.4315844 -2.288277 0.9336066 0.6186165 2.043479 0.13124943 1.7374747
0.53140134 2.6500027 -1.3407978 -0.056237187 -2.4511888 0.8896644 -0.54634213 1.3131256
-1.2391943 0.59312767 -0.9726382 0.25897095 -1.982243 -0.32501003 0.37767726 2.876455
-1.18704 0.28567 -2.1690867 1.2626427 0.70764995 3.5969863 -2.944688 1.4581952
-1.1485466 0.35819373 -1.2516245 0.81587666 -0.3782033 1.0566918 -1.4290388 1.4890345
-1.3636167 0.45119536 -1.4388347 0.89916354 -0.16374607 -0.8841816 -1.9620589 -0.8202084
-1.9627404 2.6887205 -2.4740868 2.0958846 -1.5238678 -0.22640122 -3.320768 3.3873944
-1.189767 -1.1245261 -1.5665603 -2.129553 -0.9736496 -0.67017615 -0.17784752 2.2147799
-2.539511 0.42385232 1.7697326 0.6856952 -1.6322087 0.541481 -3.9100873 0.27103183

embed1.weight f4 [448, 64]
00000000: 877f 08bf 8284 0bc0 80d8 883f 0c4a 48bf
00000010: 76f4 5f3b 77f0 6c3e 7190 6c3e 7a29 1e3f
00000020: e437 ad3f ce8e 6ebe dd11 bbbe 5ae3 c83f
00000030: 8004 303f 4042 693e a9c6 213e 4190 7c3f
00000040: 602f a3bf 3dca 993e 1624 7abd c665 903e
00000050: 2dda c13d a3c7 593f a685 8dbe 589e b53e
00000060: 2d9d 2ebf 4ce9 20be 95b5 8bbf 12a6 683d
00000070: 3a56 103f 5cfe 8a3f fc98 3d3f 1659 dbbd
00000080: a90e 603f b3fa f9bd a3b7 c13e e8fa 8e3d
00000090: 4e47 ebbf 32e6 85be e128 3d3f 36ef 03c0
000000a0: 0cbb 92bf 7312 153f a780 0c3f 7558 9c3d
000000b0: c579 39bc cb21 9a3d 931b 133f d00d 89bf
000000c0: d3c5 983f ff95 3040 9d24 27bf 7507 3d3f
000000d0: 0fde 7f3f 2cbc be3e edc8 9abe 2908 c63f
000000e0: 3848 bbbf 8f54 b23e 3a82 243f 4679 ab3f
000000f0: 0494 d0bf be78 a2bf dc3a 8fbf 0db4 68c0
00000100: d8b5 4740 d15f 3a40 054f 27bf b772 d9bd
00000110: cefe 9fbe 9d41 783f 94cc e53e 7621 3440
00000120: 8a50 e03f f81b 8cbe 107e 1e3e bf59 fdbe
00000130: 3955 793e 9a6e a4be 6baf 08c0 97bf 1540
00000140: 80e6 e0bf 6028 e73e f4bc ec3e 2f45 703f
00000150: f65d 993f 044a 7dbf f7ae 38c0 1c5c db3d
00000160: ff89 babf 67df 99bf 7ced dd3c 98a2 153e
00000170: 4ead 2840 4648 e1bf d7e0 a0bf 2259 fb3e
00000180: 7cfe e63e 425e 55be e52a 2540 667c 4bbf
00000190: 7abd f5bf 4893 063e f49d e8bf cda1 8bbf
000001a0: 4cc1 78c0 0b2a 923e 463e d3be 9358 3c3f
000001b0: 5516 513f d029 62bf a404 4dbf 2712 373f
000001c0: e793 1cc0 3085 b93f ea0c f9bf a6fa ed3e
000001d0: 33fc af3f 9b29 36bf 9eca 9abf 8863 a03f
000001e0: ec59 9d3d adda 11bf e94f e63f 7628 6ebf
000001f0: 607f 0b3f 3a67 bbbf 3565 3f3e b185 b3be
00000200: 954a 9840 6d71 62c0 225e e0be 973d ed3e
00000210: 0d44 333e d720 6e40 3a45 98be 37c1 943f
00000220: bfbf 4140 141d 8c3f f4d1 2f40 b5cf 04c0
00000230: 5119 7c3e 1d59 50be f29d ac3e fede 3ebf
00000240: a493 d6bf b864 833c 2472 9c3f 3e12 e13f
00000250: 3a04 c7be 4f8b fbbf 5f25 7fbf 15b7 a53f
00000260: 0dbe 00bf dd5b e63e d631 2a3f 1a39 00bf
00000270: e09d 6abf d5c1 963f 691e 773f 8157 89bf
00000280: 73f5 e6bf 5a80 83bf 6984 b73f 174b debf
00000290: 5868 05bf 4452 9ebf 8305 9abf 0ab9 c23f
000002a0: fbe6 1b3f 2da3 6e3f d833 033d b278 14bf
000002b0: 238f 863f a58f 27c0 48c0 cc3f 5422 1140
000002c0: c562 8040 93ec 53bd 2e4e 1fbd 9fef 333d
000002d0: 8331 0740 11ee 2140 b9c2 c4bf 6a51 29c0
000002e0: 5bfe 0cc0 a931 fabf 597d 263f 816e 82bf
000002f0: b7a8 fe3f fc17 a4bf 1bc1 8f3e 869c 3e3f
00000300: 83ac 35c0 903b 8d3f 6cb2 ba3e cac2 ff3d
00000310: 621d d43e 6d00 813e 8d83 953f 8cce 4a3f
00000320: 8303 cd3e 90b9 113e 9d71 753f 2317 d6bf
00000330: eccd 00bf 40e3 c33e c5e2 6dbf 3050 dbbe
00000340: 326e 0d3d 0dc7 ce3e f479 97bb f158 623f
00000350: 7f61 123f 597c 28bf 1436 b2be bee7 2dbf
00000360: 60c5 69bf 030f f0bf 182d 263f a44e 1a3e
00000370: 421e 99be 9b17 923e 4791 84bd f87c 59bf
00000380: 22a1 dcbf fd15 60bf 2f8c a63d 98af 4dbf
00000390: 95ec 9bbd b981 223f c755 42bf 61d3 bc3e
000003a0: 3a6d b8be 0e61 2fbe 7936 4e3e 4fff 96be
000003b0: 538e 923d a979 df3f d571 fdbe 42c4 8bbf
000003c0: 2332 29bf 0ca4 46bf f4cf a53f f52f 393e
000003d0: 4b61 ba3d 02db bbbf 242e 303f e78f 2ebe
000003e0: 683a 1e3f fa43 eabd 1153 903f 82d4 84be
000003f0: 5eb3 eebd f3f9 843e ba5d e1be 74e5 29bb
-0.5331959 -2.1799626 1.069107 -0.78237987 0.003417281 0.23138605 0.23101975 0.6178204
1.3532681 -0.23296663 -0.36537066 1.5694382 0.68756866 0.22779179 0.15798439 0.98657614
-1.2748833 0.30037108 -0.06106957 0.28202647 0.09465442 0.85070246 -0.27641028 0.3547237
-0.6820858 -0.15713996 -1.091479 0.056799002 0.5638157 1.0858874 0.7406156 -0.10710351
0.8752237 -0.1220602 0.37835416 0.0698145 -1.8381135 -0.26152188 0.738905 -2.0614753
-1.1463332 0.58231276 0.5488381 0.07634059 -0.011320536 0.07525977 0.5746395 -1.070734
1.1935371 2.759155 -0.6529024 0.73839504 0.9994821 0.3725294 -0.3023142 1.547124
-1.4631414 0.34830138 0.6426121 1.3396385 -1.6295171 -1.2693098 -1.1189837 -3.6359894
3.1204739 2.9120982 -0.6535495 -0.10617583 -0.31249088 0.9697512 0.44882643 2.8145423
1.7524579 -0.27365088 0.15477777 -0.49482533 0.24348916 -0.32115632 -2.1357067 2.3398187
-1.7570343 0.4514799 0.4623791 0.93855566 1.19818 -0.98941064 -2.885679 0.10710928
-1.4573363 -1.2021302 0.02709078 0.14612806 2.6355777 -1.7600181 -1.2568616 0.4909144
0.4511603 -0.20836738 2.580743 -0.7948669 -1.9198449 0.13142121 -1.8173203 -1.0908753
-3.886798 0.285477 -0.41258448 0.73572654 0.816747 -0.8834505 -0.80085206 0.71512073
-2.4465272 1.4493771 -1.9457066 0.46480292 1.374884 -0.71157235 -1.2093084 1.2530375
0.07683167 -0.569743 1.7993137 -0.9303049 0.54491234 -1.4640877 0.18690951 -0.35062936
4.7591043 -3.538173 -0.43821818 0.46336052 0.17506428 3.7207544 -0.29740316 1.1621464
3.0273283 1.0946374 2.7471895 -2.0751774 0.24619032 -0.20346494 0.33714253 -0.7455901
-1.6763806 0.016039237 1.2222333 1.7583692 -0.38870412 -1.9651889 -0.996664 1.2946497
-0.50289994 0.4499196 0.66482294 -0.5008713 -0.9164715 1.1777903 0.9653078 -1.0729829
-1.8043655 -1.0273545 1.4337283 -1.7366666 -0.5211234 -1.2368855 -1.2032932 1.521272
0.60899323 0.93217736 0.032031864 -0.57996666 1.0512432 -2.6181424 1.599618 2.2677202
4.012057 -0.051739287 -0.038892917 0.043929692 2.112397 2.5301554 -1.5371925 -2.6455941
-2.2030246 -1.9546405 0.65035015 -1.0189973 1.9895238 -1.281982 0.28077015 0.74457586
-2.8386543 1.1033802 0.3646425 0.12488325 0.41428667 0.25195637 1.1680771 0.79221416
0.40041742 0.14230943 0.95876485 -1.6725811 -0.5031421 0.38259315 -0.9292415 -0.42834616
0.03452892 0.4038624 -0.0046226922 0.88416964 0.5718002 -0.6581474 -0.34806883 -0.67931736
-0.91316795 -1.8754581 0.6491256 0.15069062 -0.29905897 0.28533635 -0.06473022 -0.8495631
-1.7236674 -0.8753355 0.08132207 -0.8034606 -0.07613484 0.6347919 -0.75912136 0.3688002
-0.36020833 -0.17126867 0.20137967 -0.2949166 0.071560524 1.7459003 -0.4950091 -1.0919268
-0.6609213 -0.77594066 1.2954087 0.180847 0.091005884 -1.4676211 0.68820405 -0.17047082
0.6180787 -0.11438747 1.127535 -0.2594338 -0.11655305 0.25971946 -0.4401682 -0.0025924118

layers.0.weight f4 [76, 76]
00000000: d832 4b3e 0e8c cf3f 9939 083f a019 2dbe
00000010: 6c4c 7dbf 3626 94bd ddea 883e 3029 b33e
00000020: 59c9 22bd 3060 19bf bb9e b4be 8d1c 6b3e
00000030: c9ee dfbe c0f2 40bf 74b0 8e3f fe2f f7be
00000040: bb97 853e 70a1 483e c6d4 c2be 4177 2abf
00000050: b4e4 8b3e 96a7 da3e 7c2b 273e 2c3d a6bd
00000060: c195 2e3f 4e3a d23e 26a0 0abd f429 e53e
00000070: 070f 393e 8a41 803e 0c31 263f e685 00be
00000080: 888e 773f 71eb 89bd e370 8ebe f899 153d
00000090: 99ec aabf 1ca2 c0be 2a26 f93e 4e8a 84bf
000000a0: bdfa fa3e c71a 3fbf a5f4 b93c 965f 203f
000000b0: 4318 413e 6be5 3dbe 7acd 763e aa60 e0be
000000c0: 45c1 d1bd c0c9 303d e3e8 e63d 3572 0b3c
000000d0: d03b 9c3c 3762 803e 6bcb 9ebf d63f b53e
000000e0: d802 debd 04d1 0bbf cdca 44bf 83b7 b2be
000000f0: 6f1f 41be 6e3d b9be bc6a 563d 23bc 45bd
00000100: 431c 793f 1db7 f7be 035e c83e beb4 413f
00000110: b8b5 bf3f 0746 3940 5b67 1f41 9a19 80c0
00000120: 3a33 afc0 c1ca 4d40 5dcd e4be 1f78 433f
00000130: 5c01 85bf 093d 1cbf bdc1 6cbf 26af 533c
00000140: cffd 24bf d9d1 bc3f 1bd0 86bf e775 a2bf
00000150: c0d4 593c fd5f 04bf b7bc 663f eebe 1abf
00000160: bbf1 c63f 26ff b5bd 44aa c4be 26fd de3e
00000170: 61b4 463f 57e6 473b 44a9 273e e6b8 75be
00000180: f39a 24be 1bba 02bf 6b8b 273e 855f 33be
00000190: b903 7bbe d633 3abf e782 ca3e 2659 abbf
000001a0: 617c e03e 939f 79bf ee21 2d3f 654f b5bc
000001b0: 4011 55bf ad4b 7cbf 3fdd f6be 8859 213f
000001c0: 30fa 96bf 82c4 86bf 4b87 c83d 9dd8 1d3f
000001d0: 4426 863f 2e9f 133f e397 97be e898 753e
000001e0: 05e2 0fbf 8ea9 ae3d 225f 8abf 69af 5a3e
000001f0: 92dc 05bf bb9b 093f b9ab 88bc bb16 483f
00000200: 53ec 39bf 301f b23d 8244 d43e 87c3 1e3e
00000210: 5eb8 9dbc d8ec ffbe 5d98 cdbf 1901 81bf
00000220: 0138 373e 3198 523f 5508 06bf 26b0 0abf
00000230: 8667 c93d 6688 d6be 4db0 5fbf 47b0 823e
00000240: b6c6 0340 d550 fdbe fc2b b5c0 5a60 d040
00000250: 5f1f 7440 27f4 6a3f 66a8 edbe e85f e63f
00000260: d86c 7ebf 161e 563e 68a8 8340 ee01 19c0
00000270: 2cc3 413e bd65 463f 4381 9f3d ea4f ddbe
00000280: 39cb cf3d b788 07bf aaf3 83be 6e7f 8d3f
00000290: 3443 5d3f e193 45bf 5de6 1bbe 6be2 27bf
000002a0: b72f 623e 9abc 813f 3e0b 393e d95d 9e3f
000002b0: 6f00 453f 3dd9 b33d 9270 973f 3a3c 39be
000002c0: 8ec5 023f 7369 f73e 9076 b33e d0c7 40bf
000002d0: 3e45 38bf 817f c73d 0a5a 98bd 2923 8a3c
000002e0: e29c 0bbf 5dc1 273f 3efe 483f fb5f df3e
000002f0: 4888 a23f 1eca de3e aab4 0a3f 261a 953c
00000300: d579 0cbe 0cdb c13e 3dd8 633e 1354 b6be
00000310: ab3f 8e3d 431c 13bf 149e 9f3f 2ec2 6bbd
00000320: 0f71 cb3d 43ca 133f 95e7 a7be e179 f4bc
00000330: f4be 933f 9993 8a3f 8247 95bd e38b 113f
00000340: c319 7dbf d79f 0e3f 6d9d a3bd 57c0 473e
00000350: 1b1d 353f b1fb e43d 1abd 823d 6ca1 963e
00000360: 42da 01bf c105 2a3f eb2b 88bf c1c5 5c3f
00000370: 8b4e 2840 a14f 36c0 f70d bfbf eb05 00bf
00000380: 1949 cbc0 7cec 63bf 3ad9 d83f fdfb f8be
00000390: e130 ec3f 4728 aabf 6b69 853f 9a03 81c0
000003a0: 0756 fe3d d974 0cbf 5635 35bf 61c1 9f3e
000003b0: 857a 2cbe 60b7 5abe 64bb b1be 5760 cd3e
000003c0: e618 99be 3aff 60bf 8f12 6f3e 1fd5 76bf
000003d0: 97b6 30bf a84c 943e 3c7c 96be 7244 de3d
000003e0: 3b09 1f3d 2f3d e6be 36c7 9e3e c9fe 11be
000003f0: 6c19 e63e 59b8 2cbe 6388 363f 232e 68bf
0.19843614 1.6214616 0.5321289 -0.16904306 -0.98944736 -0.07233851 0.26741686 0.3499236
-0.0397428 -0.59912395 -0.35277352 0.2296011 -0.43736866 -0.7537041 1.1147599 -0.48278803
0.26092324 0.19592834 -0.38052958 -0.6658822 0.27322924 0.42705983 0.16325182 -0.08117136
0.68197256 0.41060108 -0.033844136 0.4475857 0.18072139 0.25050002 0.6491859 -0.12551078
0.9670186 -0.0673436 -0.278205 0.03652379 -1.3353454 -0.3762368 0.4866193 -1.0354707
0.49019423 -0.74650234 0.022699663 0.6264585 0.18856911 -0.18544547 0.2410182 -0.4382375
-0.10241941 0.043161154 0.11274888 0.008511116 0.01907149 0.25074932 -1.2405828 0.35400265
-0.10840386 -0.5461581 -0.7687195 -0.34905633 -0.18859647 -0.3617968 0.052347884 -0.048275124
0.9730875 -0.48381892 0.39134225 0.75666416 1.4977331 2.8948991 9.962733 -4.003125
-5.4750032 3.2155 -0.4468793 0.76355165 -1.039104 -0.6103063 -0.9248312 0.012920177
-0.6444978 1.475154 -1.0532259 -1.2692231 0.013295352 -0.51708966 0.90131706 -0.60447586
1.554252 -0.08886556 -0.38411152 0.43552512 0.77618986 0.0030502283 0.16373163 -0.23996314
-0.16074733 -0.51065224 0.16361777 -0.17516907 -0.24513139 -0.72735345 0.39552996 -1.3386581
0.43844894 -0.97509116 0.676299 -0.022132585 -0.83229446 -0.9855297 -0.48215672 0.6302724
-1.1795101 -1.052872 0.0979143 0.6165865 1.0480428 0.57664764 -0.29608068 0.2398411
-0.56204253 0.08528434 -1.0810282 0.21355976 -0.5228969 0.5375325 -0.016683446 0.78159684
-0.7262623 0.08697355 0.41458517 0.15504275 -0.019252952 -0.49985385 -1.6062123 -1.007846
0.17892458 0.82263476 -0.52356464 -0.5417503 0.09834199 -0.4190094 -0.8737839 0.25525114
2.0590034 -0.49475732 -5.661619 6.5117617 3.8144147 0.91778797 -0.4641754 1.7998018
-0.9938483 0.20909914 4.1143074 -2.3907428 0.18922108 0.7749899 0.077883266 -0.43225032
0.101461835 -0.52942985 -0.25771838 1.1054513 0.8643067 -0.7717877 -0.15224595 -0.6557986
0.22088514 1.0135682 0.18070695 1.237239 0.76953787 0.08781669 1.1831229 -0.18089381
0.51082695 0.4832264 0.35051394 -0.7530489 -0.71980655 0.09741116 -0.074390486 0.016862469
-0.5453626 0.65529424 0.7851294 0.43627915 1.269784 0.43513578 0.5418192 0.018200945
-0.1371835 0.37862432 0.22250457 -0.3561102 0.069457375 -0.57465 1.2470117 -0.05755823
0.099336736 0.577305 -0.3279387 -0.029843273 1.1542649 1.0826293 -0.0728903 0.56854075
-0.98867434 0.55712646 -0.07989011 0.19506966 0.70747536 0.11180819 0.063837245 0.2942003
-0.5072366 0.6641503 -1.0638403 0.8623925 2.629794 -2.8486102 -1.4926137 -0.5000903
-6.352673 -0.8903272 1.6941292 -0.48629752 1.8452417 -1.3293542 1.0422796 -4.0316896
0.12418752 -0.54865795 -0.7078451 0.31202224 -0.16843612 -0.21359015 -0.3471328 0.40112564
-0.29901809 -0.87889445 0.23346923 -0.96418947 -0.6902861 0.28964734 -0.29391658 0.10852899
0.038827162 -0.44968554 0.3101136 -0.14257349 0.4494127 -0.16867198 0.7130186 -0.906954

layers.0.bias f4 [76]
00000000: da69 7a40 1cd2 6640 09c2 0f40 1a22 40c0
00000010: 58f4 8e40 b63d 1e40 8021 22bf 42dc c53f
00000020: fdb0 3740 72ae 793f a941 5a3e c731 64c0
00000030: 0488 4740 ff69 7d40 02a7 7a40 1ed6 ab3f
00000040: 0bb9 4dbf b33e 1f40 a5b1 64c0 5072 9f3f
00000050: 829d 1540 5907 943f fbed ad40 a346 8c40
00000060: 3db7 b73f 2276 6340 4169 cebf 81ac e1bf
00000070: 3509 8f40 18a4 bd3f 946a aa40 eb99 fbbe
00000080: b308 f33e eb13 74c0 5c69 533e 2bf9 3040
00000090: 09e7 a140 21b2 52c0 e80f 5840 9e12 2240
000000a0: 8d88 d93f b849 3bbd 9cb0 8340 7a71 7140
000000b0: 6cc8 8c40 427f 1940 a64d 9440 e447 3dc0
000000c0: 7131 e13f 89c2 cf3d 62f8 1f40 1cb6 2d3f
000000d0: 1e1b 2f3f e6ca 8140 e192 b23f 0ba0 66c0
000000e0: 1c3c 8040 12c9 28c0 55a9 88bf 41db 7a40
000000f0: bd1c 2840 4ba9 0dc0 df70 0440 8430 4bc0
00000100: a51d 6040 a210 0740 6201 0240 37f0 7840
00000110: 0eee 0b40 b2f2 7f40 6d0d be3f 53e8 a6be
00000120: f35c 3340 dbe8 5140 f627 5c40 552f 3a40
3.9127107 3.606574 2.246218 -3.0020814 4.467327 2.4725165 -0.63332367 1.5457842
2.8701775 0.9753181 0.2131411 -3.5655382 3.1176767 3.9595945 3.9164433 1.3424718
-0.8036048 2.4882019 -3.5733426 1.245676 2.3377385 1.1564742 5.4353004 4.3836226
1.4352795 3.5540853 -1.6125871 -1.7630769 4.469874 1.4815702 5.32551 -0.49140868
0.47467574 -3.8137157 0.2064566 2.765208 5.0594525 -3.2921221 3.3759708 2.5323863
1.6994797 -0.0457246 4.115309 3.772551 4.3994656 2.3983922 4.6344786 -2.9575129
1.7593213 0.101445265 2.499535 0.67856 0.6840075 4.056018 1.3951074 -3.6035182
4.0073376 -2.6372724 -1.0676676 3.9196322 2.626754 -2.2134578 2.069389 -3.1748362
3.5018094 2.1103902 2.0313344 3.8896616 2.1864047 3.999188 1.4847847 -0.32599124
2.8025482 3.2798374 3.439939 2.909139

layers.1.weight f4 [16, 76]
00000000: f13c d33f 6bd9 543f 7141 eb3e e2ee 5cbf
00000010: 233a d33e 7b08 c93d 414d 0cc0 f6b3 353f
00000020: 6070 373e 953a 483e 7d67 883f f93e 26be
00000030: 34cb 223e 3688 e73f f85b 533e 7697 623e
00000040: 7c26 8f3e 9827 89ba 4f0e 61bc fa63 e13e
00000050: f730 cbbc 130b a03f 8ee2 d83e 9e5f 773e
00000060: b177 be3d 737f 923f 9e70 a3bc 6607 adbc
00000070: 69ab 533e 2273 333f 4075 e93e a700 be3f
00000080: 8bfd 443f 5abb 2bbe 2128 883f ba3a 203f
00000090: 77e1 5b3e d4ca e8bc 1cd6 ec3e b867 253e
000000a0: bb69 bdbd e25b b93f 3795 283f f07d 1a3f
000000b0: 4dd6 17bc ff99 0f3f c564 c23e d097 a9bd
000000c0: 7f98 efbe 00e7 0fbf 7cd1 b13f 1406 1740
000000d0: 7316 0abd d05d 7a3f aa0d c83e 7a87 5bbe
000000e0: ac92 823e d1db 1040 c001 cebd 5913 d83d
000000f0: 9db1 693e ea80 80be fb9c c43e 3016 ef3f
00000100: 4766 733c e013 233f d23d 8f3f eada 6e3f
00000110: 69c1 473f 82e1 63bd dc27 323e 4476 3fbf
00000120: b1b3 eb3d 7c40 123f c299 183e dfda 2fbc
00000130: f9bc 1f3e 6532 88be 48fe 93be 6ff5 45be
00000140: 7bb9 7a3d 970f f2bd fbe7 75be 5106 5ebc
00000150: 2faa 11be 75d9 04bf 7a7c b83d 214c 57be
00000160: 061d 91be c278 25bf b756 ab3e 9e24 6e3e
00000170: 80a8 b2be a76a 05bf 801b e6bd a4df be3c
00000180: 3d93 d4be a31f 963d 236e 96be 7590 b9bd
00000190: 1aca d6be a3d3 03bf 280d dabd 9afa 1e3e
000001a0: 0f64 d3be eae7 b5be 2ca1 b7be b701 f1be
000001b0: 2d25 16be 4e30 83be b1d2 fb3d b998 e6bd
000001c0: f9eb 72be 4eb1 8ebe 0358 46bd 3be1 9bbe
000001d0: 2955 a1be c183 7abe 1019 91be 7ed0 10be
000001e0: 0ca1 273e 35e8 89be 5852 00bf 5543 80be
000001f0: 6aa7 c8be 9f72 89be fbf1 e0bc 963e 1f3f
00000200: d2ce 4dbe 71eb 733e 867f 3ebf b8e4 47be
00000210: c353 413d 3127 2e3a b2b8 13bf 43f5 3cbe
00000220: 11f1 c2be e155 8ebe d69a 91bf a0c1 3abe
00000230: c26b 19be e2ac 3dbe 8c78 babd adf7 8e3e
00000240: 6d46 fabd 5efc 54be c694 c9be 4768 ccbe
00000250: 41dc 62be 83e6 babe 28e2 b23c 6884 c9be
00000260: 129c ef3f a1c1 81bf 8d78 123e b0ab 59bd
00000270: 0aa1 63bf 9a9d 9cbf aaf1 afbf 2ae0 e4be
00000280: 3904 c23c 5339 53be fae7 02bf 5e1d fb3d
00000290: 87e5 10c0 2b27 1340 4bc8 9bbe 3b60 ad3d
000002a0: a688 bd3e b37e aabf 09bc ad3d a069 2a3d
000002b0: 5574 1bc0 8b76 3ebf f6bb 61bf dad3 b3bf
000002c0: ebd8 25bf 804a 34be 070e ff3d dfa3 33be
000002d0: b064 c7bf 874c d9bf 0091 443f 5554 633f
000002e0: e11a a7be fedd 043f 8fa5 82bf 364e 593f
000002f0: 8b9f c0be 4086 7e3e 0ea7 83bf 7fbf cabf
00000300: 233f 2abf be7d ff3e 0e46 183e ff80 2dbe
00000310: 7d07 d83e 5172 0ebf 7279 ac3f 2a20 1cbf
00000320: 8138 fcbf 0463 debf f241 9bbd 3729 b23f
00000330: 76c5 d2bc 5885 6fbf c819 edbf aa16 fabe
00000340: 6f22 843f 1ba7 fa3f eafe 00be 39b9 03c0
00000350: 2cfb f33e e294 5fbe 2f95 1cbe 0449 60bf
00000360: 0f85 82bf 0213 69be 77ba a5bd 0762 bf3f
00000370: 60c8 3b3e 38f0 3cbf 73dd 26bf 394f e6bf
00000380: b151 13c0 4d1e 83bf fb34 5bbf 23bd 31bf
00000390: 564e 8cbe f363 15c0 f7d5 8c3e b567 893e
000003a0: 5b91 f9bf ffe9 50c0 6171 b4bf 6949 1740
000003b0: b57c 65bf d9d3 14bf fcda bbbf 498b 3e3e
000003c0: 4db9 20bf 5134 843e fb62 ac3e 3bad fb3e
000003d0: fd85 eb3e 1e9f 4bbf 9bf6 3fbe 5dfe 513f
000003e0: 1a44 27bf 15cc 6340 cf98 e33d 019f 0bc0
000003f0: 41c3 cfbf 3b9a 163e 9e78 a23e cc74 d5be
1.6502973 0.83144253 0.45948365 -0.86302006 0.41255292 0.09816071 -2.1922152 0.70977724
0.17913961 0.19553597 1.0656582 -0.1623496 0.15897828 1.8088443 0.20640552 0.2212809
0.2795905 -0.001046407 -0.013736322 0.4402159 -0.024803622 1.250338 0.42360348 0.24157569
0.09300173 1.1445144 -0.019951161 -0.021121692 0.20670857 0.70097554 0.45597267 1.4843949
0.76949376 -0.16770688 1.0637246 0.6258961 0.21472727 -0.028417028 0.46257102 0.16152847
-0.09248682 1.4481165 0.65852684 0.60348415 -0.009267402 0.56094354 0.37967506 -0.08280909
-0.46796033 -0.56211853 1.3892055 2.359746 -0.033712815 0.97799397 0.39072925 -0.21438399
0.25502527 2.2634165 -0.100589275 0.10550565 0.2282166 -0.25098354 0.38401017 1.8678646
0.014855928 0.637022 1.1190741 0.93302786 0.78029495 -0.055634983 0.17398018 -0.74789834
0.11508883 0.57129645 0.14902404 -0.010733335 0.15599431 -0.26600948 -0.2890494 -0.19331907
0.061212044 -0.1181938 -0.24014275 -0.013551311 -0.14225076 -0.51894313 0.09008117 -0.21025135
-0.28342456 -0.64637387 0.33464596 0.23256156 -0.3489418 -0.52115864 -0.11235714 0.0233
-0.41518584 0.07330253 -0.29380903 -0.09060756 -0.41951066 -0.51494807 -0.106470406 0.15525284
-0.41287276 -0.355285 -0.35865152 -0.4707162 -0.14662619 -0.2562279 0.122960456 -0.11259598
-0.23722829 -0.27869648 -0.04842378 -0.30445275 -0.31510285 -0.24464323 -0.28339434 -0.14142033
0.16370028 -0.26934972 -0.50125647 -0.2505137 -0.39190227 -0.2684526 -0.027459135 0.62204874
-0.20098427 0.23820283 -0.74413335 -0.19520843 0.047199022 0.0006643413 -0.577037 -0.18452935
-0.38074544 -0.27799895 -1.1375377 -0.18237925 -0.14982513 -0.18522981 -0.09105024 0.27923337
-0.12220464 -0.20799395 -0.39371318 -0.39923307 -0.22154333 -0.3650399 0.021836355 -0.3935883
1.8719504 -1.0137216 0.14303799 -0.05314225 -0.889176 -1.2235596 -1.3745625 -0.44702274
0.023683654 -0.20627336 -0.5113522 0.12261461 -2.2640092 2.2992656 -0.3042625 0.0846562
0.37018317 -1.3319916 0.084831305 0.041604638 -2.4289753 -0.7439963 -0.8817743 -1.4049027
-0.64784116 -0.17606544 0.124538474 -0.1754298 -1.5577602 -1.6976479 0.7678375 0.88800555
-0.32637694 0.51901233 -1.0206774 0.84884965 -0.37621722 0.248559 -1.0285356 -1.583969
-0.6650259 0.4990062 0.14870474 -0.1694374 0.42193213 -0.55643183 1.3474562 -0.6098658
-1.9704744 -1.7373967 -0.075809374 1.3918828 -0.025728922 -0.9356284 -1.8523493 -0.48845416
1.0323008 1.9582247 -0.12597242 -2.05818 0.47652566 -0.21834138 -0.15291284 -0.87611413
-1.0196856 -0.22761157 -0.08092206 1.495179 0.18338156 -0.73804045 -0.65181655 -1.7992927
-2.301861 -1.0243622 -0.85627717 -0.69429225 -0.27403516 -2.3342254 0.27506992 0.26836935
-1.9497484 -3.264282 -1.40971 2.3638556 -0.8964341 -0.58135754 -1.4676204 0.1860782
-0.62782747 0.25821164 0.33669266 0.49155602 0.46000662 -0.7953967 -0.18746416 0.8202875
-0.6533829 3.5593312 0.1111313 -2.1815798 -1.6231462 0.14707272 0.3173265 -0.4169067

layers.1.bias f4 [16]
00000000: 8699 ff40 cfa5 0940 9b13 c440 b794 a53f
00000010: 3bee c93f 66e7 fe40 51b1 a640 2e81 fc40
00000020: 505b fe40 d5f2 c3bf 8708 0541 3156 04be
00000030: 11a1 d940 a357 f440 3d25 0641 06b6 973e
7.9874907 2.1507452 6.1273932 1.2936009 1.5775827 7.965747 5.209145 7.890769
7.9486465 -1.5308481 8.314582 -0.12923504 6.8009114 7.635698 8.384091 0.2963106

layers.2.weight f4 [128, 16]
00000000: 0b69 1fbe e1ed 2a3e 13b7 46be 452a 11be
00000010: 7251 93be 0354 81be e2ce 0ebe 4ced 5b3d
00000020: c5dc da3d 335e 48be 0f2d 84be 22ec 65be
00000030: 6505 e03c 6657 89be e021 e4bd f461 11bd
00000040: 564c 1fbe 4152 95be 0324 fcbd 7470 a73d
00000050: 6868 bdbe 635f 223c 5322 5cbe ddbf a9bd
00000060: 65c3 30be fe63 42bf bf45 7d3b 3a37 73be
00000070: 50fd c6be 1634 1c3a 19fb e7be f526 7dbe
00000080: 7377 58be 6cb9 aabd bce0 26be 8413 e3bc
00000090: bc7a 13be 0fbf 11be b16a 4abe 8fc3 273e
000000a0: 8341 a93c bdbd e8be d0fe 753e 8e35 b9bd
000000b0: d6e3 58be baab dfbd 5867 e2bd ac91 b33d
000000c0: ba69 9dbe 1479 98bc a18b c2bd 7c74 17be
000000d0: 7765 37be 602b 65be 0948 96be 3581 bbbe
000000e0: 720e 2a3d 07a5 0dbe 1c3e 323d 791c 8d3e
000000f0: f5cd 97be 61d7 a9be 20f3 b9be 8d7d 34be
00000100: c1a5 7a3c bb33 f23d 4218 b7bd f1ba aabd
00000110: 358e 35be dbbd 79be 0a89 b73d e36e 9aba
00000120: fa19 95bd 1f40 a0be db69 6ebe 4c07 72bd
00000130: ea32 8ebe 7ae4 87bd adce 063d 0a58 4ebe
00000140: 9909 843c e071 56be 4fdc 45be 7aad 09bd
00000150: 6431 053e a2ec fdbd 6680 f5bc 880b 9a3d
00000160: c1eb 893d 9773 43be 7b87 1bbe 5122 523e
00000170: a3c9 683e bae6 42be 5813 23be c606 7a3e
00000180: 947f 36bc 9736 76be 9f8e 64be b4cb 3b3f
00000190: 563e 59bf 62f7 55be 5716 a23d 1652 e7bc
000001a0: 6bf4 85be b83e 5bbf 265b ccbe 62f0 0dbe
000001b0: 53d1 cfbc db13 3ebe 6bea dcbb 635b 0fbf
000001c0: 8815 85be ec67 e2bd f357 9cbe 1436 0c3e
000001d0: c608 9cbe e63f b9bc ddcd d8bd 5559 dd3d
000001e0: 57fa 3d3d 075b 26bf c1bc 38be a217 353e
000001f0: a159 a9be 46d6 83be e119 2e3c babf adbd
00000200: 698e edbe 2fed 38be bdd0 033e 1ccf d0bd
00000210: 3a98 8a3d cc63 89be 3325 c5be 8e5e cfbd
00000220: af71 d6be 3ac2 ccbe f2b2 aebe 7c48 5c3e
00000230: 2cac f7be 0f0d 71be 29db 72be 380b c4bd
00000240: eccd 80be b520 4cbe e5f5 8bbe d2a6 603d
00000250: a140 ccbc 4123 e13c afce 46be c335 1d3d
00000260: c18c 9dbe 0dbe 89be 784e c43d fe1d 16be
00000270: 7f7f 8bbe 48dc af3d afde 53bb 59ea 95be
00000280: f282 a7bd 7d67 a0bd 04de 90be 9708 263d
00000290: 4296 97be a16b 4e3c 587a 0abe 52da edbb
000002a0: 0904 643e 7bab e6be b63b 7cbd 379a 513d
000002b0: 18fa 053e b13d 293d 09ad 6bbe 6cc4 febd
000002c0: 3254 933d 0e9c 79be 5665 083d e532 0a3e
000002d0: 4acf 8dbe aaad 10be 25e5 db3d f6ca dc3d
000002e0: 2125 65bd cc1f 86bf 5f28 5dbe 6a2b 9c3e
000002f0: d159 62be 31cd e33c 700f 853d faa7 86be
00000300: a409 d13d 1abc 64be 1095 e53c 806a e23b
00000310: 42c2 6c3e c0ae 49be c09d dabd f84a 703d
00000320: e8ef 003d a00b cdbd b826 0bbe 7469 193e
00000330: 66a3 483e 9811 a9bd e897 b7bd 00b6 873c
00000340: ba6e c03e 2f4a 0ebe 59d9 7e3f 1793 e0bf
00000350: 6d1f 91bf 8266 053f 15ab d2bd 1215 073f
00000360: 0bbe 1b3f 745a 13c0 d9c3 143f 3587 2c3e
00000370: 710d 363e 780e bf3e 0765 333f b6cf 44bf
00000380: 3035 83be 3426 ce3d 1d03 3d3d 0efb 8bbe
00000390: 57d4 99bd 6451 3b3e fbcd 9e3d 84ad 53be
000003a0: 36db f2bd 76b4 29be 3c7d 58be 4182 72be
000003b0: 1631 63be 4201 81be 026d 64be 91ee 223c
000003c0: 8751 d83b c465 953d bf73 db3c 33c3 5e3d
000003d0: 9d97 f13c e2f3 003e 34c1 a4bd 7b40 61bd
000003e0: 3de7 cf3d 136d 0a3e 6210 ffbd 3018 19be
000003f0: eb3f 73bd 4a9a 85be bdba 6dbe 2682 25be
-0.15567414 0.16692306 -0.19405775 -0.14176281 -0.28773075 -0.25259408 -0.13946107 0.0536931
0.1068664 -0.19567184 -0.25815627 -0.22453359 0.027346322 -0.26824492 -0.11139274 -0.035493806
-0.15556464 -0.29164317 -0.12311556 0.081757456 -0.36993718 0.009910437 -0.21497469 -0.08288548
-0.17262037 -0.75933826 0.0038646308 -0.23751536 -0.38865137 0.0005958689 -0.4530876 -0.24721892
-0.21139316 -0.08336148 -0.16296667 -0.027719267 -0.14402288 -0.1423304 -0.19767262 0.16383193
0.020661121 -0.4545726 0.24022985 -0.09043418 -0.21180663 -0.10921426 -0.110548675 0.08768019
-0.30744725 -0.018612422 -0.09499288 -0.14790529 -0.179098 -0.22379827 -0.29351833 -0.36622015
0.041517682 -0.13832484 0.043516263 0.27560785 -0.2964932 -0.33172134 -0.36318302 -0.17626019
0.015298308 0.11826273 -0.08940174 -0.083364375 -0.17730029 -0.2438883 0.08961685 -0.0011782314
-0.07280345 -0.3129892 -0.23282568 -0.05908899 -0.2777322 -0.06635375 0.032911945 -0.20150772
0.016117858 -0.20941877 -0.19322322 -0.033612706 0.13007122 -0.1239865 -0.029968452 0.07521731
0.067344196 -0.19087063 -0.151884 0.20520903 0.22733168 -0.19033328 -0.15925348 0.24416646
-0.011138815 -0.24044262 -0.2232003 0.733577 -0.8486074 -0.2089515 0.07914417 -0.028237384
-0.2616304 -0.85642576 -0.3991329 -0.1386123 -0.025368368 -0.18562262 -0.006741812 -0.5599882
-0.2599299 -0.11054978 -0.3053585 0.13692504 -0.30475444 -0.022613477 -0.1058614 0.10808054
0.04638132 -0.64982647 -0.18040754 0.17684796 -0.33076194 -0.25749415 0.010626287 -0.084838346
-0.46397713 -0.18059228 0.12872596 -0.10195753 0.06767316 -0.2683395 -0.38504943 -0.10125457
-0.4188361 -0.39991933 -0.341209 0.21512026 -0.48373544 -0.23540138 -0.23716415 -0.09572452
-0.25157106 -0.19934352 -0.2733604 0.054846592 -0.024933161 0.02748263 -0.19414781 0.03838135
-0.3077145 -0.2690281 0.09585279 -0.14659879 -0.2724571 0.08586937 -0.0032328775 -0.29280356
-0.08179273 -0.07832239 -0.28294384 0.040535536 -0.29606825 0.012598903 -0.13523233 -0.007258692
0.22267164 -0.45052704 -0.061580382 0.05117246 0.13083684 0.0413186 -0.23015226 -0.12439808
0.07193793 -0.24375936 0.033299766 0.13495977 -0.27697212 -0.14128748 0.10737065 0.10780899
-0.055943612 -1.0478454 -0.21597432 0.30501872 -0.22104575 0.027807804 0.06497085 -0.2630003
0.10206917 -0.2233738 0.02802518 0.0069096684 0.23120978 -0.19695568 -0.1067462 0.058665246
0.031478792 -0.10011983 -0.13588989 0.14981633 0.19593582 -0.08255309 -0.08964521 0.016566277
0.37584478 -0.13895486 0.99550396 -1.7544888 -1.1337715 0.5210954 -0.102865376 0.52766526
0.6083686 -2.3023958 0.5811134 0.16848452 0.17778565 0.37315726 0.7007603 -0.7687944
-0.25626516 0.100658804 0.046145547 -0.27339977 -0.07511204 0.18292767 0.077541314 -0.2067166
-0.118582174 -0.16572747 -0.21141523 -0.236825 -0.22186694 -0.25196272 -0.22307208 0.009944574
0.0066015157 0.07294801 0.02678859 0.054385375 0.02949124 0.12593034 -0.08044663 -0.054993134
0.10151527 0.13518171 -0.12454297 -0.14950633 -0.05938713 -0.26094276 -0.23215766 -0.16162929

layers.2.bias f4 [128]
00000000: 8ba9 b73d 1c00 6840 5ebb f33f afea 923f
00000010: d518 bebd defb 9c3f cedd 8140 ddca 3140
00000020: 96cc b63f e23e e73d 53fb 0340 be93 4040
00000030: 00b0 39be f8f5 fe40 48ee 2cbe d857 de3f
00000040: 20dd 0d40 b706 133e 61fe bf40 02f4 ec40
00000050: e5a2 0041 39c8 8c3f 5b12 fa40 e5d7 cabd
00000060: cb3d 7d40 f6b0 21be ab58 f840 5c5c 3dbc
00000070: 5610 68be 7094 793f f230 a43f c2dd 0640
00000080: c968 bb3f 3580 0a3e 8f20 993f f232 3040
00000090: 8e5f bcbd 7d4d ad40 b1b4 1640 b9ae 5fbe
000000a0: 0d44 57be a965 0140 9a2d 253c 5784 2c3e
000000b0: e902 a040 9e30 0040 136f 6bbe dc99 3dbe
000000c0: 50cc 01be cb0e 67be f4c5 5fbe 1c5d 2cbd
000000d0: 559b 733f cef8 f440 89f7 3e40 6782 3e3e
000000e0: d252 a63f 951a b73f c922 3b40 4b43 23be
000000f0: 8804 673d 7d8c 7f40 fbcb c73d 7675 2ebe
00000100: e177 f43e f898 0241 7a95 35be 8dcc 9b3f
00000110: c751 c440 77e3 ec3f fe89 e53e ea44 a73f
00000120: cd70 7240 033c 0140 40f1 f8bc 9bf2 3f40
00000130: 2cce a5bc efc3 e83e ab68 3abe 47de 393f
00000140: 5390 883f b88e 733f d20a 473f 1098 2b40
00000150: 4841 5bbd d4d9 3e40 0d5a 03bf 5b5d 8abe
00000160: 9fdd 753f 930a 893f ae4a 77bd c0c4 b640
00000170: 91cd dbbe ffef 033e a303 2f3f d0ae 6cbe
00000180: b619 1040 64ad 6840 2178 983d 0a41 3fbe
00000190: 6a5d fe3f 7640 6ebe c2b0 a2bd 8591 9d3f
000001a0: a83a 033d 4808 a5bc 6a10 44bd adf8 0c40
000001b0: 9b0b d83e bf54 3d3d 5394 b3bd aeea 65be
000001c0: 2ee4 bdbe aa87 9440 8690 4bbe a482 9c3f
000001d0: 8c26 a1be 1d10 3840 868e 8fbe f9fd a23f
000001e0: b0dd 743d 5a47 713f 0433 0b40 33c3 a340
000001f0: f31d 87be 34da 21be ea81 06bf 0ca5 3640
0.08967885 3.6250067 1.9041555 1.147787 -0.0928208 1.2264364 4.058326 2.7780068
1.4281185 0.11291291 2.0622146 3.0090175 -0.18133545 7.9675255 -0.16887772 1.7370558
2.2166214 0.1435803 5.999802 7.404786 8.039769 1.0998603 7.8147407 -0.0990446
3.9568965 -0.15790161 7.7608237 -0.011557665 -0.22662482 0.9749212 1.2827437 2.107285
1.4641353 0.1352547 1.1963061 2.7531095 -0.09197913 5.415709 2.3547785 -0.21843995
-0.21022053 2.0218298 0.010081673 0.16847359 5.0003552 2.0029674 -0.2299159 -0.18515724
-0.12675595 -0.22564237 -0.21852857 -0.042080984 0.9515889 7.6553717 2.9838583 0.18604432
1.2994025 1.4304987 2.923998 -0.15943639 0.056400806 3.9929497 0.09755703 -0.17036995
0.4774771 8.162346 -0.17732802 1.2171799 6.1349826 1.8506917 0.44831842 1.3067906
3.7881348 2.0192878 -0.030388474 2.9991825 -0.020239912 0.45461985 -0.1820399 0.72604793
1.0669044 0.95139647 0.77750885 2.6811562 -0.053529054 2.9820452 -0.5130928 -0.2702435
0.9604129 1.0706352 -0.060373954 5.7115173 -0.42930272 0.1288452 0.68364924 -0.2311356
2.2515693 3.635583 0.07444788 -0.18677154 1.9872258 -0.23266777 -0.0794387 1.2310034
0.03203836 -0.02014555 -0.047867216 2.202678 0.42196354 0.0462234 -0.08768525 -0.22452804
-0.3708815 4.6415606 -0.1987935 1.2227368 -0.3147472 2.8759835 -0.28038424 1.2733756
0.05978173 0.942495 2.1749887 5.117578 -0.26390037 -0.15805894 -0.52541983 2.8538237

layers.3.weight f4 [1, 128]
00000000: 8696 a13c c1fd 13bb 8070 f5bb 6ce0 7cbc
00000010: f712 4e3d e63e f63c 973c 2c3c c49c 9cbc
00000020: 9f7a 74be 9914 4d3d 7916 c6b9 cc46 72bc
00000030: 2097 7b3c 34e0 073f a03f 02bc 1ff9 babc
00000040: 787f 31bc c0b3 9e3c 0524 2d3f a0e6 413d
00000050: a651 193f 8d8d 3fbc e362 c73e f929 cc3c
00000060: 1b33 5fbd 32a5 693d 88c8 963e 5143 993c
00000070: 4081 9fbc 4e2f 48bd 92b5 eaba 06b8 06be
00000080: bf60 f3bc 0ece 503c 515e 75be 114a 283d
00000090: 791d 9b3d 2966 9b3b f986 713e 515a 45be
000000a0: bf56 253d b4ff 9b3b a43a a83c cb1e e53c
000000b0: 4b38 9e3b fda2 193a 39a7 bb3c 7d57 383b
000000c0: 92bf 1d3d ffd7 633d 39bf 9fbd f211 d63b
000000d0: 4596 9e3c 51d3 3b3e de18 24be ac48 a03d
000000e0: 76b4 c3bc d627 d9b9 5bc4 5bbe bcdf 2a3e
000000f0: 7a38 043c e223 7cbd 91d1 2c3c 94e6 f63c
00000100: 9e31 e8ba 7507 2d3f 6712 1e3d 0550 aa3d
00000110: b1ed 973e 03b7 5f3e a844 dcbc 8870 31bd
00000120: 6e72 3f3c 0114 b63b f9e0 c53b 4d6b 19bd
00000130: 889e 23bc dfea d53d 971c 673d b4a7 3c3d
00000140: aa59 e73d 06f5 e83c d415 10bc c80e 58bc
00000150: c2a8 ae3c 7233 323e 5e0d 4abe 0d44 333d
00000160: 03c3 32ba f062 053a 765a 51bc 5119 f53e
00000170: 006b 713e 72a5 d93c 13d6 953e 04d4 8fbc
00000180: 42cd 383a c7cb cd3d 19b5 8dbc 6426 1ebd
00000190: 6e1e 753b 3007 863c 39f4 2f3c d542 50ba
000001a0: 79f4 c7ba 8b20 9d3d 2fd8 79bd 4afa b93c
000001b0: 2a68 93bd a528 293d cd88 873d 3b26 303c
000001c0: c1f9 a63d dc52 f3b9 9974 8c3d 0d20 8dbc
000001d0: e1af 723d c18f 6d3b 7585 683d 95cc d3bc
000001e0: a360 ae3d 8888 50be a74f 093a f72d 433a
000001f0: a5a5 d4bc 820b 0a3d 3811 8f3e 23be 34bb
0.019725095 -0.002258167 -0.0074902177 -0.015434366 0.050311055 0.03005929 0.010512493 -0.01911772
-0.23874901 0.05006847 -0.00037782246 -0.014787387 0.015355855 0.5307648 -0.00794974 -0.022823868
-0.010833614 0.01937282 0.67633086 0.04733908 0.5989021 -0.011691463 0.38942632 0.024922358
-0.054492097 0.05704231 0.29449868 0.018708857 -0.01947081 -0.04887324 -0.0017906895 -0.13156137
-0.029709218 0.01274444 -0.2396176 0.04108626 0.07573981 0.004742403 0.23586644 -0.19272734
0.04036593 0.004760707 0.020535775 0.027968785 0.004828488 0.0005860774 0.022906886 0.002812832
0.038512774 0.05562591 -0.07800145 0.006532901 0.019358763 0.1834233 -0.16025111 0.07826361
-0.023889761 -0.00041419145 -0.21461622 0.1668691 0.008070106 -0.061557658 0.010548011 0.030139245
-0.0017714982 0.67589504 0.03859177 0.08316044 0.29673532 0.21847157 -0.026888207 -0.04332021
0.011684997 0.005556584 0.0060387817 -0.037455846 -0.009986527 0.10445189 0.05642375 0.04605837
0.11296399 0.028437149 -0.008794267 -0.013187118 0.021320704 0.17402437 -0.19731662 0.04376607
-0.000681922 0.000508829 -0.012777915 0.47870877 0.23575974 0.026568148 0.29264888 -0.017557152
0.0007049629 0.10048633 -0.017298268 -0.03861083 0.003740217 0.01636085 0.01073938 -0.0007944529
-0.0015255354 0.07672223 -0.060997184 0.022702355 -0.07197602 0.041298527 0.066178896 0.010751302
0.081531055 -0.00046410307 0.06858177 -0.017227197 0.059249762 0.0036249014 0.0567679 -0.025854388
0.08514526 -0.20364583 0.00052380044 0.0007445509 -0.025957892 0.03370238 0.27942824 -0.002757915
