best_model.pt (torch, 63295 bytes, 7 tensors)

weight f4 [42, 4]
000000 f0 17 62 bf de ab c6 3f fd e6 86 3f 1a 27 37 3d
       -0.88317776 1.55212 1.0539242 0.044715025
000010 51 93 cc 3f 02 19 01 c0 98 23 08 c0 b3 40 c3 3f
       1.5982457 -2.0171514 -2.1271725 1.525412
000020 58 3e e1 3e e0 0b 1b bf cf 29 3e bf 12 11 af bf
       0.43992877 -0.60564995 -0.74282545 -1.3677084
000030 9a a0 7a 3f d6 9c ea bf 0d 19 49 be 39 6e 51 be
       0.9790131 -1.8329113 -0.19638462 -0.20452203
000040 5a 49 83 3f 86 c8 78 bf 45 c2 ef 3e 71 83 e7 3f
       1.025676 -0.97180974 0.46827903 1.8086988
000050 ae a8 61 bf fc a3 0f bf da ac f7 3f bb 18 ec 3e
       -0.8814801 -0.56109595 1.9349625 0.46112618
000060 c2 ea 56 3e a8 ee 17 c0 48 e6 43 bf 94 f3 0a be
       0.2098799 -2.3739414 -0.76523256 -0.1356948
000070 23 78 07 3f d3 0b 6f bf 02 f0 38 3e 85 70 f5 3f
       0.5291769 -0.9337742 0.18060306 1.9174963
000080 6b 8e bd 3e 67 51 44 bf a7 8b c2 3f 27 6d 4e 3f
       0.3702272 -0.7668671 1.5198869 0.80635303
000090 ad e9 34 bf 61 f9 49 3f b0 15 99 bf d3 a4 de be
       -0.7066906 0.78896147 -1.1959743 -0.43485126
0000a0 8c be 84 3e d2 1d 95 bf a6 5c 3f bf b0 d6 10 3f
       0.25926626 -1.1649725 -0.74750745 0.5657759
0000b0 ad 3f f2 3e 4f cb bb 3e 7a 4f be bd 7a 66 11 c0
       0.47314206 0.3667855 -0.09292503 -2.2718797
0000c0 6c 6e 7d bf e8 78 49 c0 73 62 0e bf 3d 50 06 40
       -0.98996615 -3.1480045 -0.5561897 2.0986474
0000d0 81 a8 61 40 e3 0f 8a be a9 1a 3c bd 32 6a 96 3f
       3.5259097 -0.26965246 -0.045923863 1.1751158
0000e0 94 ae ea 3e e7 02 20 bf c2 c7 a6 3e 45 e8 14 bf
       0.45836318 -0.6250443 0.32574278 -0.58166915
0000f0 de b4 e6 be f0 4b b6 3e a0 89 f2 bf 4e 56 cc bf
       -0.45059866 0.3560481 -1.894825 -1.5963838
000100 ba a3 dc bf e2 ba a2 be b5 80 a7 be 2c 69 4a c0
       -1.7237465 -0.31783205 -0.32715383 -3.1626692
000110 57 df 22 3f af 45 8b 3d db 06 21 3f 0b d4 b2 3f
       0.6362204 0.068004005 0.62901086 1.397096
000120 ea 52 86 be 84 49 85 be 99 57 0d bf 87 a1 f4 be
       -0.26235133 -0.2603265 -0.5521179 -0.47779486
000130 ea 2b 8c bd 4f 66 ba 3d 28 67 f7 bf d8 d9 dc be
       -0.068443134 0.09101545 -1.9328356 -0.43134952
000140 ec 00 37 3e 15 97 67 3e 76 9e f1 bf 6a 2f 98 3f
       0.17871445 0.22616227 -1.8876483 1.188947
000150 11 c7 2b be 15 85 04 c0 ea 54 5b bd b3 8c 48 3f
       -0.16775157 -2.0706227 -0.053547777 0.7833969
000160 c5 2d 87 bf 53 ae 5d bf a7 70 9a be c5 6c 20 3f
       -1.0560843 -0.8659412 -0.30164072 0.6266597
000170 cf 2b 87 3e 99 11 18 bf 9d 15 2b 3f 80 cf c0 3f
       0.2640061 -0.5940185 0.66829854 1.5063324
000180 ef 87 db 3e b3 56 12 c0 ab 4c dc bf bf af 4f bf
       0.42877147 -2.2865417 -1.7210897 -0.8112754
000190 19 57 48 3f 53 64 75 be 39 9a db be e4 c1 e1 bf
       0.782579 -0.23964052 -0.428911 -1.7637296
0001a0 ca e2 2b 40 88 60 a7 bf ce ca 82 bf d6 94 db 3e
       2.685717 -1.3076334 -1.0218141 0.4288699
0001b0 ba d0 16 bf ff 8d 15 bf 8e 8a f9 3d dd c6 d1 3f
       -0.5891224 -0.58419794 0.1218463 1.6388813
0001c0 52 08 c0 3d 91 92 83 bf 75 f8 de 3c ad ce b5 be
       0.09376587 -1.0279104 0.027218083 -0.35509244
0001d0 b0 c6 2d 3e 43 79 ed be 43 79 64 3f a9 b5 40 3f
       0.16970325 -0.46381578 0.8924753 0.7527719
0001e0 a7 3f 61 bd ed d1 98 be 13 20 7e 3f 17 b1 33 3f
       -0.054992344 -0.2984766 0.9926769 0.7019209
0001f0 9b 69 2f 40 4a ab cc bf af be 1b 3f 84 3c ce be
       2.7408206 -1.5989773 0.60837835 -0.40280545
000200 59 f0 02 3f 9e 9c cb be cb 57 7f bf af a1 1b 3f
       0.5114799 -0.39767927 -0.99743336 0.60793585
000210 8d 3b d0 3e 03 37 74 bf 32 85 15 c0 79 cf 9a bf
       0.40670434 -0.9539644 -2.3362546 -1.2094566
000220 ae 90 64 3e 9b 45 2a bd 1b 7c e3 bf 04 c0 20 3f
       0.22320816 -0.041570287 -1.7772249 0.6279299
000230 e9 80 81 3f 35 54 1c 3e 8d b2 b5 3f c5 2f 93 3f
       1.0117465 0.15266497 1.4195114 1.1498953
000240 42 ea 91 bf 5f 1c a5 bf 04 8a 04 3f d9 06 32 bf
       -1.1399615 -1.2899283 0.51773095 -0.695417
000250 e0 cd 0b 40 6a 92 d0 bf 58 6b 02 c0 00 76 ae bf
       2.1844406 -1.6294682 -2.0378017 -1.3629761
000260 1e e0 1c 3f 2e 90 83 bd b6 35 c0 3e f0 f4 b1 3e
       0.61279476 -0.064239845 0.37540978 0.34757185
000270 9f 93 7a 3f 14 50 8d bf b4 6a a2 bf 21 9c 8c bf
       0.978815 -1.1040063 -1.2688813 -1.0985147
000280 81 13 20 40 bd 70 09 c0 60 45 df be 38 42 c2 3f
       2.5011904 -2.147506 -0.43607616 1.5176458
000290 65 1f c1 bd f5 73 9f bf ba 15 de be ac 95 db bf
       -0.09429816 -1.2457262 -0.4337595 -1.7155051

weight f4 [448, 8]
000000 c8 2b d9 bf 36 29 5e bf 23 99 98 3f 91 fd df 3f
       -1.6966486 -0.8678163 1.1921734 1.7499257
000010 2f 8d f6 bf 82 c1 b1 bf b7 54 2b c0 e9 5c bb 3f
       -1.9261836 -1.3887179 -2.6770456 1.4637729
000020 2e 34 38 c0 c9 26 e4 3e 29 15 83 be 1c a5 3c bf
       -2.8781848 0.4456084 -0.2560208 -0.73689437
000030 18 8e 24 bf 38 de a6 bf e6 e4 35 40 54 dc 27 3f
       -0.6427932 -1.3036566 2.8420959 0.6557057
000040 3c 23 81 3f e9 bb 95 bf 4c 11 04 c0 46 74 71 be
       1.0088878 -1.1697971 -2.0635557 -0.23579511
000050 8b 31 da 3f 33 62 06 3f 12 9e 3b 40 b4 f3 0e 40
       1.7046369 0.5249359 2.9315228 2.2336245
000060 b8 f9 67 be 6d 1a 33 3d 9c 57 30 bf 4d c3 e9 bd
       -0.22653854 0.043726373 -0.6888368 -0.11414204
000070 1c fa ec bf d4 4e b4 3e d6 3b 8e 3f 2f 72 4d 3f
       -1.8513827 0.3521639 1.111201 0.80252355
000080 a5 88 a9 3f e5 fb fc 3e 24 06 e3 be a6 46 9b 3f
       1.3244826 0.4941093 -0.44340622 1.2130935
000090 4a ad c6 3f 18 0c 37 3e ab b2 19 3f 78 17 52 bf
       1.5521634 0.17875707 0.6003825 -0.8206706
0000a0 7a 14 a9 3f 35 9d b5 3f ec fa 7a bf 7b cd 8d 3e
       1.3209374 1.4188601 -0.98039126 0.27695832
0000b0 e6 96 89 3f 35 e8 5e 3e d5 b6 6a 3f c0 56 de 3e
       1.0749176 0.21768267 0.9168523 0.4342556
0000c0 9f 4e 9f 3e ab 17 bb bd 8f 0b 01 bf 4c f4 f4 be
       0.3111467 -0.09135374 -0.5040826 -0.47842634
0000d0 c4 ed 90 be 5b 9a 1a bf 02 4f 9e 3f 32 da 80 3e
       -0.283064 -0.6039178 1.2367861 0.2516647
0000e0 59 43 00 bf cb fc 4b 3d 20 9f 98 3f 61 72 20 bf
       -0.50102764 0.04980163 1.1923561 -0.6267453
0000f0 eb 0d c8 3e 8b 1c 86 be 76 24 cc be 3c 33 32 bf
       0.3907312 -0.26193652 -0.39871567 -0.6960943
000100 ca e0 20 c0 a5 ad 24 3f e9 b5 a4 3e 0c bd 99 3f
       -2.51372 0.6432746 0.32170036 1.2010818
000110 3b bd ac bd 5d 3e 02 3f f1 e3 c8 3f 37 0f c8 bf
       -0.0843453 0.5087641 1.5694562 -1.5629643
000120 3f 98 09 be 4f ad b1 be eb ff 14 be 73 e9 38 bf
       -0.13436984 -0.34702536 -0.1455075 -0.72231215
000130 14 96 b8 3e 44 f8 8a bf 51 aa 61 bf c3 4e 69 bf
       0.36052 -1.0857015 -0.8815051 -0.91135806
000140 84 54 dc be 90 fc cb 3e d6 03 f9 bf df cf 80 3f
       -0.4303323 0.39841127 -1.9454296 1.0063437
000150 36 5e 16 40 60 54 47 be f3 2f 4c 3f d4 16 7f 3f
       2.3495002 -0.1946578 0.79760665 0.9964421
000160 d8 88 18 40 9f e8 6c be 05 2c 2b 40 72 ae 9a 3f
       2.3833523 -0.23135613 2.6745617 1.2084486
000170 37 3a c1 3f 34 5b 0e c0 94 db 42 3f de e4 2e 3f
       1.5095891 -2.2243166 0.761163 0.68317974
000180 a6 69 5b 3f ca 1a 8b bf 0e 8d c7 bf 24 c7 7e 3f
       0.8570808 -1.086755 -1.5589921 0.99522614
000190 6a f2 85 be 0c 70 b9 bf 5c d2 9e 3e aa 64 af bf
       -0.2616151 -1.4487319 0.31019866 -1.3702595
0001a0 a5 36 1f c0 84 8b 93 3e d0 40 5e bf 81 ae 3e 40
       -2.4877102 0.2881738 -0.86817646 2.9794009
0001b0 51 4d f6 3f a0 cd 27 3f c6 5a e4 3f 36 8f 1b bf
       1.9242345 0.65548134 1.7840202 -0.607654
0001c0 51 5b 6a bf db 53 b2 bf 63 fa 9d be a0 33 10 bf
       -0.9154559 -1.3931841 -0.30855092 -0.56328773
0001d0 cc 6f 02 3f e7 38 e0 be cc 5a 3e 3f 34 6c f6 3f
       0.5095184 -0.43793413 0.74357295 1.9251771
0001e0 3e bf cf bf 29 d0 ca 3e 12 87 a1 be 15 84 1d 3f
       -1.6230237 0.3961194 -0.31548363 0.61529666
0001f0 6d 95 33 3f b5 26 c0 3e 3f 87 d9 3e da 58 23 3f
       0.7014988 0.3752953 0.42485997 0.6380745
000200 2e 1c be bd df 26 dc 3e 9e 8f 9f bf fd 95 80 c0
       -0.092827186 0.42998406 -1.2465703 -4.018309
000210 45 f5 18 3f bb 93 00 c0 6b 13 f9 bf 8e 50 80 3f
       0.5974925 -2.0090168 -1.9459051 1.0024583
000220 24 d1 b0 bf 0d 11 ca bf 53 93 17 be ca 40 06 bf
       -1.3813825 -1.5786453 -0.14802293 -0.5244261
000230 07 32 b8 bf 45 fb 9e be c8 d4 5d 3f c6 0f eb be
       -1.4390267 -0.31051078 0.86652803 -0.45910472
000240 eb 72 6d 3f 9d 57 e6 bf 2c b0 07 c0 e8 55 d3 3f
       0.92753476 -1.7995487 -2.1201277 1.6510592
000250 12 4b 11 c0 d4 6e da bf 58 f5 1d 3f cb 40 f5 3f
       -2.270207 -1.7065072 0.6170249 1.9160398
000260 ad 19 d1 3f f4 9a 6f bf a2 da ca 3f 92 08 dd 3f
       1.6335961 -0.93595815 1.5847971 1.726824
000270 ae 00 c9 3f 5d ef 6e be 18 5b 96 3f c9 71 1c bf
       1.5703332 -0.23333497 1.174655 -0.6111112
000280 aa d0 97 be 53 0c 7e be e1 73 95 3e 7a a7 33 be
       -0.29651386 -0.24809389 0.2918997 -0.17544356
000290 e7 5e dc 3e 9e 26 30 3f cc 4d 6b bf 0b 95 02 3f
       0.43041155 0.68808925 -0.91915584 0.5100867
0002a0 c9 d1 30 bd 57 d3 8e 3f 8d 1c 61 3f 8b 4d b0 be
       -0.043168817 1.1158246 0.8793419 -0.3443416
0002b0 20 35 d8 bf e8 56 4d 3f e2 76 c0 bf 61 0c cc bc
       -1.6891212 0.80210733 -1.503628 -0.024908246
0002c0 4d bd a8 3d 3c ec ed 3f 7e ec b4 bd a2 f8 91 3e
       0.08239231 1.8587718 -0.0883417 0.28510004
0002d0 c6 8f 7d 3f 82 c1 12 3f 13 c0 ee 3e a9 88 b1 bf
       0.99047506 0.5732652 0.46630916 -1.386983
0002e0 5b ad 47 be 69 e9 5c 3e 36 ff a9 bf 6a 3f 47 3d
       -0.19499724 0.21573414 -1.3281009 0.04864446
0002f0 92 37 c8 3f 7d 1b bd 3e 8f 4c 1d 3f 4b 90 df bf
       1.5641959 0.36935034 0.61444944 -1.746591
000300 80 bc c7 3f 34 63 dc bf 31 60 a6 3f 52 50 2e 3f
       1.5604401 -1.7217774 1.2998105 0.6809131
000310 cc 78 20 40 14 d8 43 3e a2 6b 62 3f 66 71 0f c0
       2.5073729 0.19125396 0.88445485 -2.2412963
000320 98 44 0f 3f 59 e5 49 c0 38 e1 c3 bf e9 68 cf bf
       0.5596404 -3.1546233 -1.5303106 -1.6203891
000330 49 ed 97 3e 20 e1 26 bf 93 a1 8e be 56 21 48 3f
       0.29673222 -0.65187263 -0.27857646 0.78175867
000340 33 53 2e c0 61 84 17 40 f6 e5 8e 3f b4 a8 49 3f
       -2.723828 2.3674548 1.1163929 0.78773046
000350 03 d5 7f c0 dc 28 20 bf dc 6f 28 c0 6c 54 e2 3f
       -3.9973762 -0.62562346 -2.6318274 1.7682014
000360 f6 fc d7 bf d6 02 e7 3e c7 e0 7c 3f cb d2 20 40
       -1.6874073 0.4511935 0.98780483 2.5128658
000370 b1 a4 0e 3f aa 90 d2 3f d7 c9 6a 3f 57 20 db bf
       0.5572005 1.6450398 0.91714233 -1.7119244
000380 33 95 65 3f 01 83 13 bf d2 42 ac be 5d f0 98 bf
       0.89680785 -0.5762177 -0.3364473 -1.1948353
000390 98 9b fb 3d bf e8 01 3f 2e 73 6f 3f 7d f0 80 3d
       0.122855365 0.5074577 0.93535125 0.062958695
0003a0 c0 77 2e 3f f8 8b 27 40 4f db d5 be d9 78 50 be
       0.68151474 2.617918 -0.41768882 -0.203586
0003b0 7f 61 d3 bc 81 a0 c9 be 21 15 7e bf 34 7d 7e be
       -0.025803326 -0.39380267 -0.9925099 -0.24852449
0003c0 48 59 6f 3f 7a a9 84 3e 45 c0 d7 bf c7 9a 2d c0
       0.9349561 0.2591055 -1.6855551 -2.7125719
0003d0 80 31 8f bf 18 a9 ff be c0 70 3c 3f 30 c5 5f bd
       -1.1186981 -0.49933696 0.7360954 -0.054631412
0003e0 46 70 13 be 28 53 9e 3f 95 96 7b bf 1b 04 d7 3f
       -0.14398298 1.2369127 -0.98276645 1.6798128
0003f0 71 51 ee 3f 97 e4 be bd cf b0 be 3f ed 81 08 c0
       1.8618604 -0.09320944 1.4897708 -2.13293

weight f4 [128, 20]
000000 37 81 0f 3f ca d6 0a 3f 28 3d cb 3f 33 05 87 3f
       0.5605654 0.5423399 1.5878038 1.0548462
000010 2a 6f 01 bf 75 13 3d 3f f2 75 7b bf b5 59 2e bf
       -0.5056025 0.73857814 -0.98226845 -0.6810563
000020 44 06 74 be 0e 71 1b bf bc 1a 26 bf c5 7c d8 be
       -0.23830515 -0.6071938 -0.64884543 -0.42282692
000030 aa 7a 57 c0 58 47 9d 3f 45 40 90 3e bb dd 14 40
       -3.3668618 1.2287397 0.28174034 2.3260334
000040 9b 00 03 40 28 c2 b0 3f c8 ca 73 be e7 6a 23 3c
       2.046912 1.3809252 -0.23807824 0.009974218
000050 66 72 45 bf 06 22 8b be cb 51 69 3e cd 8c a5 3f
       -0.77127683 -0.27174395 0.22785108 1.2933594
000060 f6 da aa 3f f3 7d 87 bf 96 8e b4 bf bc d8 7e bf
       1.3348072 -1.0585312 -1.4106014 -0.9954946
000070 d6 5a 69 bf 87 12 0a bf 4f 7e 81 3f 6a ed ac 3f
       -0.9115423 -0.5393452 1.0116671 1.3509953
000080 21 86 fc bf f1 f8 c9 3f 66 5e 3e 3e f2 08 e7 3f
       -1.9728433 1.5779096 0.18590698 1.8049605
000090 a2 e7 95 c0 a3 ff 62 3f 55 de a9 3e 5c 71 36 bf
       -4.6845255 0.8867132 0.33177438 -0.7126672
0000a0 90 53 72 bf c9 a9 16 40 72 f4 81 3f c8 aa 3f 3f
       -0.94658756 2.3541129 1.0152724 0.74869967
0000b0 c9 c3 a8 3f 72 ea 86 be 60 d4 34 3f ec 73 94 be
       1.3184749 -0.26350743 0.7063656 -0.2899469
0000c0 28 66 e9 bd 9c 42 53 be 4b 63 19 bf a1 27 c7 bf
       -0.11396438 -0.20630878 -0.59917134 -1.5558969
0000d0 47 6c 15 c0 87 ad d4 bf f0 a0 2c c0 cb b4 42 40
       -2.3347337 -1.6615456 -2.6973228 3.0422847
0000e0 df aa 06 40 43 27 64 3e c8 7c a9 3f 0d 4f a1 3f
       2.1041791 0.22280602 1.3241205 1.2602249
0000f0 e5 15 10 bf 9c 26 2c 3f 4e 1b bb 3e 00 63 24 3c
       -0.5628341 0.67246413 0.3654427 0.010033369
000100 8e 90 22 bc 20 5c 28 3e 92 c0 c8 bd 8d 2b ff 3d
       -0.00992216 0.16441393 -0.09802355 0.124594785
000110 43 54 bd bc 26 5b 52 ba cd 91 fa 3c d6 54 68 3d
       -0.023111468 -0.00080244464 0.030587101 0.05672153
000120 0e a6 64 3e 25 27 38 3e 42 23 de be 79 a9 a9 3f
       0.2232897 0.17983682 -0.43386275 1.3254844
000130 89 c3 b0 bf a5 74 11 3f a0 ef a0 3d 93 83 02 be
       -1.3809673 0.5681861 0.07858205 -0.12745504
000140 55 f1 0e be 3a 64 f2 3f de 3d b8 be f2 44 cd 3e
       -0.13959248 1.8936837 -0.359847 0.40091664
000150 52 17 09 3d 23 69 87 be f5 64 45 be 0f e9 0b 3f
       0.033469506 -0.264474 -0.19276793 0.54652494
000160 b8 80 8f bf 6b 38 a7 be af e8 93 bf c1 8f 50 3f
       -1.1211157 -0.3266023 -1.1555384 0.8146935
000170 d0 b5 78 c0 5d cf f4 bf 8b 93 dd 3e 96 1c be bd
       -3.886097 -1.9125782 0.4327663 -0.09282796
000180 58 43 87 bf 31 70 16 be b0 32 54 3f b5 5f 48 bd
       -1.0567427 -0.14691235 0.82889843 -0.0489194
000190 5a 04 d5 3e 65 93 3c bf 4a 0a a0 3f 35 47 0b c0
       0.41604882 -0.73662406 1.250314 -2.1762211
0001a0 b1 a0 51 bf 4f d2 4b bf 50 4f e9 3e 35 1c 86 3f
       -0.8188582 -0.7961778 0.45568323 1.0477358
0001b0 f9 9d 06 3f b5 97 88 bf 36 b2 02 3f 49 2d 97 3f
       0.525848 -1.0671297 0.5105318 1.1810695
0001c0 ca 92 20 3e fa b4 8c 3f 2b 27 b3 bf 86 ab 3c 40
       0.15680996 1.099273 -1.3996328 2.947969
0001d0 94 71 d7 3f b1 08 8d 3f c4 31 d2 bf ae 74 ac 3f
       1.6831536 1.1018277 -1.6421437 1.3473108
0001e0 18 ab 20 bf 7f 33 d9 be 89 92 24 bf de 4f 08 3f
       -0.6276107 -0.424221 -0.64286095 0.5324687
0001f0 32 f8 90 3f 75 b5 46 bf 8f a0 1a 3f e3 de 36 3f
       1.1325743 -0.7762063 0.6040124 0.7143385
000200 88 90 15 bf 78 1f 8b 3f b2 8a 71 bf 77 58 81 3e
       -0.5842366 1.0868979 -0.9435226 0.25262806
000210 91 1d 3d 3f f4 21 1b c0 f4 4b f3 3e 22 18 28 3e
       0.7387324 -2.4239473 0.47518885 0.16415456
000220 ba 43 fb c0 0f 92 da 3d 9f d5 b1 3e 21 2a 97 bd
       -7.8520174 0.1067239 0.34733292 -0.07381082
000230 3f 08 e7 bb 1e a1 ef bb 4c aa f2 3e bb 28 ca be
       -0.0070505436 -0.007312908 0.4739555 -0.394842
000240 58 90 ba be 9f f7 e9 bd 63 e6 37 3e 0c f2 b0 bd
       -0.3643825 -0.11424183 0.1795898 -0.08639917
000250 a9 62 0c be e0 e1 fa 3c 67 b4 ed bd fe 67 81 3e
       -0.13709511 0.030625284 -0.11606675 0.25274652
000260 02 1c e3 bf fa da 5a bf fc 82 5d bf 61 76 17 40
       -1.7742922 -0.8549038 -0.8652799 2.3666003
000270 f0 d8 79 bf 44 82 58 3f aa 04 0d 3f e1 fd 36 be
       -0.97596645 0.8457377 0.5508524 -0.17870285
000280 28 bf 64 bf 75 b6 d7 3e 23 05 eb 3e 82 6b 0f 3f
       -0.8935418 0.4213139 0.45902357 0.5602342
000290 a9 29 7b 3f 18 6b e0 be a0 ae 71 3f ce e5 81 be
       0.98110443 -0.43831706 0.9440708 -0.2537064
0002a0 ba bb 3a 3d 95 a2 ab 3f 4e 83 c0 be 21 58 13 40
       0.045589186 1.3408991 -0.37600178 2.302254
0002b0 cb 1a 00 3f c5 a0 33 bf fb c7 ea 3f c7 ba 18 c0
       0.5004088 -0.7016719 1.8342279 -2.3864
0002c0 ca eb a2 c0 95 01 64 be e7 74 b2 bd 6a 89 41 bf
       -5.091283 -0.22266228 -0.087137036 -0.756003
0002d0 19 9d a8 be 6b bb 52 bf 55 03 f6 bd 0b 34 be 3d
       -0.32932356 -0.8231723 -0.12012354 0.0928727
0002e0 b3 2d 32 3f e6 4d 7e 3f ac b8 11 3f e2 16 c3 3e
       0.6960098 0.99337614 0.5692241 0.38103396
0002f0 f1 54 b0 be ad 41 ad 3f b3 0b 44 3f b4 85 dd bd
       -0.34439805 1.3535668 0.7658035 -0.108165175
000300 f1 2a 58 c0 2f 04 71 c0 14 ae c8 3f 9f 49 a6 3f
       -3.377621 -3.7658803 1.5678124 1.2991217
000310 2a f6 d6 bf 37 60 a9 3f db 54 fa bf 55 11 1c bf
       -1.6793873 1.3232487 -1.9557146 -0.60963947
000320 df aa 26 bf 53 ee ac 3f 46 73 0c 3f 20 69 08 40
       -0.6510448 1.3510231 0.54863393 2.1314163
000330 f6 24 00 bf 7c fd 81 bf 3b 4a 1d 3e 68 23 b9 3e
       -0.500564 -1.0155482 0.15360348 0.36159825
000340 9b 90 36 be c0 5c b1 3f dd 21 4f bf cc 3c 48 3e
       -0.178286 1.385643 -0.80911046 0.19554442
000350 d4 f9 86 bd 37 56 0b bd ec b6 3b c0 59 04 0b 40
       -0.0659062 -0.034017768 -2.9330397 2.1721404
000360 72 3e 5b 3f 10 3e 58 3e 3e 31 07 3f 3e da 70 3e
       0.8564216 0.21117425 0.5280951 0.23520753
000370 48 d8 01 3f 45 c7 98 bf 6b ce 05 bf 52 03 f4 bf
       0.50720644 -1.1935812 -0.52268094 -1.9063513
000380 b5 c3 58 bf a6 17 c7 3e c2 4f 8b 3f cf 35 14 3e
       -0.84673625 0.3888523 1.0883715 0.14473651
000390 5f bd 46 3f 14 6b 33 bf 3c 1d 9d 3f aa df 94 3e
       0.7763271 -0.70085263 1.2274547 0.29076892
0003a0 bc b2 a6 3f cb 09 07 40 89 d1 3c c0 76 2f 24 40
       1.3023295 2.1099727 -2.950289 2.5653968
0003b0 f5 06 14 3f 21 52 e7 3c e4 24 7d bf 33 6f 08 bf
       0.57823116 0.028237404 -0.98884416 -0.53294677
0003c0 f6 a6 fa 3d 0e 14 b0 3f d3 5c 75 3f 3e f9 12 bf
       0.122388765 1.375612 0.95844764 -0.57411563
0003d0 5a 0e a8 bf 0d 33 8f 3f ff 47 7a 3e ac 59 f2 3e
       -1.312938 1.1187454 0.24441527 0.4733404
0003e0 44 3e d8 bf cc f3 6f 3f 9f 79 99 bd 1f f5 3d bf
       -1.6894002 0.9373138 -0.074939005 -0.7420215
0003f0 1a 2f e5 bf 5d 91 bb 3f e5 d6 77 c0 6c 28 86 40
       -1.7904999 1.4653736 -3.8724911 4.1924343

bias f4 [128]
000000 e9 ad df bf 98 3c ca 3f a8 2f 78 3d 2c 3b 96 bf
       -1.7474948 1.5799742 0.060592324 -1.1736808
000010 d1 9b 6b c0 0a 75 51 3f e1 4f 3e 40 e9 a2 92 bf
       -3.6813853 0.8181921 2.9736254 -1.1455966
000020 5d ad aa bf 30 21 de 3d 66 d7 4f 3f ee c4 90 3f
       -1.3334156 0.10846174 0.81188047 1.1310098
000030 ab bb 0e c0 64 b7 07 bf 50 e3 d0 3f 1f 2c 63 be
       -2.2302043 -0.53014207 1.631937 -0.221848
000040 1f 2c c1 3e ea ac 26 40 37 ea 8e be 0e 5a cf 3e
       0.37728974 2.6043038 -0.27913067 0.40498394
000050 e4 d2 2e 40 31 6e 97 bf 39 52 24 bf 9e db 02 c0
       2.7316217 -1.1830503 -0.6418796 -2.0446544
000060 76 fb 50 3f 06 11 d9 bf 16 d9 12 c0 ca 3c ef 3f
       0.816337 -1.695832 -2.2944999 1.8690426
000070 9b 42 10 c0 25 e3 c1 bf 19 3c f9 bf 43 a8 a5 3e
       -2.2540653 -1.5147444 -1.9471465 0.32354936
000080 d0 bc 89 bb 3b 95 16 3f 11 91 60 3f 67 b0 59 3c
       -0.0042034164 0.5882146 0.87721354 0.0132866865
000090 20 5a 8c bf 92 ef 62 bf f3 14 52 3f 87 84 63 bf
       -1.0965004 -0.88646805 0.82063216 -0.88874096
0000a0 ca 94 40 bf db 61 1b c0 cd 69 0b bf 04 64 e3 bf
       -0.75227034 -2.4278476 -0.54458314 -1.7764897
0000b0 dd b8 c7 bf e4 25 12 c0 77 17 34 bf a4 a8 8a 3f
       -1.5603291 -2.2835627 -0.70348305 1.0832715
0000c0 a4 b2 08 c0 d4 47 ac be 44 a3 d5 bf 58 89 a5 bf
       -2.1359034 -0.3364855 -1.669045 -1.2932539
0000d0 22 b2 6b 3f 20 6a 66 c0 48 51 1b c0 db a5 2a c0
       0.92068684 -3.6002274 -2.426836 -2.666373
0000e0 f6 05 df 3e f1 d6 36 c0 26 a8 d5 3e 8d ac 83 be
       0.43559235 -2.856869 0.4172985 -0.25717583
0000f0 36 36 89 3f cb 40 2b bf 4b d9 14 be 0f f6 a0 3f
       1.0719669 -0.6689574 -0.14536016 1.2575091
000100 64 9f b2 bf f9 08 a3 bf 65 a6 4c 3e 63 f1 5e bf
       -1.3954892 -1.2737113 0.1998535 -0.87087077
000110 2a dc 78 3d df 51 f0 3f 55 b4 12 bf cb e0 99 bf
       0.06075684 1.8774985 -0.57306415 -1.2021726
000120 8a a6 ef bd bc 5f 90 bf 82 32 c0 bf 29 14 10 be
       -0.11701687 -1.1279216 -1.5015414 -0.1407019
000130 d7 16 52 c0 3d 2f 98 bf 60 bc 6f be fd eb 47 3f
       -3.282644 -1.1889416 -0.23411703 0.78094465
000140 46 cc 04 c0 a3 93 7e 3f b1 df e9 bf b7 4f 57 c0
       -2.0749679 0.99444026 -1.827139 -3.3642404
000150 71 56 9b 3f 23 5b 87 bf 3a 11 d2 bf 9b 38 1b c0
       1.2135755 -1.0574688 -1.6411507 -2.42533
000160 05 16 83 3f cc 2d d3 bf 68 e3 39 3f e3 e9 23 3b
       1.0241095 -1.6498351 0.7261262 0.0025011234
000170 d7 32 3b c0 fe 9e 8e bf 8d a6 9f bf 58 f8 2f bd
       -2.924978 -1.114227 -1.2472702 -0.04296145
000180 76 77 0d 3f e1 90 ee 3e 36 19 5d c0 f4 da cc bf
       0.5526041 0.4659491 -3.4546638 -1.6004319
000190 4d 5c 3d 3f f2 db c4 bf 99 1b 0b bf c0 7b 28 bf
       0.73968965 -1.5379622 -0.54338986 -0.6581383
0001a0 b8 22 08 c0 84 c5 23 be dc e4 ff 3e 69 61 ad 3d
       -2.127119 -0.15993315 0.49979293 0.08465845
0001b0 45 f8 15 c0 63 3f 89 bf 0d 37 48 bd c1 75 df 3f
       -2.3432782 -1.0722469 -0.048880626 1.7457811
0001c0 a8 e3 20 c0 eb 6c 02 bf d4 37 b3 3f 8d 6e 81 3f
       -2.513895 -0.50947446 1.4001412 1.0111862
0001d0 54 c5 2c c0 c8 f0 ab bf d2 d5 c5 3e ac d8 92 3e
       -2.699544 -1.3432856 0.38639694 0.28680933
0001e0 a1 97 d2 bf a0 34 f7 bf c1 a5 bc bf 53 83 b7 bf
       -1.6452523 -1.9312935 -1.4738084 -1.4336952
0001f0 8c cb fb bf 4c f9 df bf da 9b cf be 11 57 ef bf
       -1.9671493 -1.7497954 -0.40548593 -1.8698446

weight f4 [64, 128]
000000 52 25 af bd 76 26 13 be 44 08 c5 bd bb c4 ed bc
       -0.0855204 -0.1437014 -0.09620717 -0.029024472
000010 f0 35 9e bc 28 73 92 bd a4 49 90 bd 6a 67 82 bd
       -0.019312829 -0.071508706 -0.07045296 -0.06367381
000020 c8 65 1c bd 6e 3d 34 bd a9 1e c2 3c 70 1c 8e bd
       -0.038183004 -0.044003896 0.02369626 -0.06939018
000030 ef 5a 85 3c 97 4a 9b 3c 41 61 77 bc f0 c2 c1 bd
       0.016278712 0.018956466 -0.015098871 -0.094610095
000040 87 ea 99 39 76 0f 81 bc 15 69 e9 bd e3 b3 fd bd
       0.0002935717 -0.015754443 -0.11396996 -0.12387826
000050 a2 96 c8 bc 6b 3a 35 bd ad 13 a9 bd 50 6a be bd
       -0.02448589 -0.044245165 -0.08255706 -0.09297621
000060 46 46 f5 bd 7b 68 b8 bd 24 f8 19 3c 6c 6e b2 bc
       -0.11976294 -0.09004303 0.00939754 -0.021781169
000070 7b 7f 92 bd af c2 f4 bd 36 e9 16 be 05 8f 12 be
       -0.07153221 -0.119511954 -0.147374 -0.1431237
000080 c6 e0 57 bd c2 2f 85 bd 67 e8 d4 bd c0 3f 0d be
       -0.052704595 -0.0650325 -0.1039589 -0.1379385
000090 dd 34 04 bd 93 b4 87 bb 2a 94 9b bd 3e 88 63 bd
       -0.032276977 -0.004141399 -0.075966194 -0.055549853
0000a0 cf cf 70 bb f9 fc 15 bd e8 9f 63 bc 22 11 ee bd
       -0.0036744957 -0.036618207 -0.013893105 -0.116243616
0000b0 40 a1 a1 bd 5b da d9 bd 9c c4 07 be d4 fd 31 bd
       -0.07892084 -0.10637351 -0.13258594 -0.04345496
0000c0 91 dd 08 be 7e 9e d5 bd 2b 70 b5 3b e1 f6 da 3b
       -0.13365771 -0.104306206 0.005537053 0.0066822623
0000d0 98 3d 07 be 81 94 0f be e6 15 11 bd f1 c5 10 be
       -0.1320709 -0.14021493 -0.035421275 -0.14138009
0000e0 3e f0 91 bd e4 f4 10 bd 15 99 c6 bd 30 96 cc 3c
       -0.07125901 -0.035389796 -0.09697167 0.024973959
0000f0 2d 1c 96 3c 06 05 d1 bd 07 5b 84 bc c2 a8 b0 3b
       0.018323982 -0.10206036 -0.016156686 0.0053912112
000100 a8 4e 2d bc d3 86 07 be a7 b6 79 bc ef 05 7b 3c
       -0.010577835 -0.13235025 -0.015241302 0.015321239
000110 a4 bb 16 bd f9 3b 81 bc 13 79 45 bd 30 e5 9f bc
       -0.03680004 -0.015775668 -0.04821117 -0.019518465
000120 34 05 a4 3c 7f 05 25 bd 09 4d 32 bd 40 03 d1 bd
       0.020022012 -0.040288445 -0.043530498 -0.10205698
000130 28 bd 72 bd 61 41 a0 bd 48 ff ff bd 21 95 08 be
       -0.059262425 -0.0782497 -0.12499863 -0.13338138
000140 c2 3c d0 bd d6 18 ff bd 2f e8 ae bd f2 04 e5 bd
       -0.10167839 -0.12455909 -0.08540379 -0.11182584
000150 d0 91 14 3c c8 0b b5 bd 6c 8e 07 bd 86 34 30 bc
       0.0090679675 -0.08840138 -0.03309481 -0.01075471
000160 b4 06 0f bd e8 fd 8b bd cd f7 91 bd 27 07 97 3c
       -0.034918502 -0.06835538 -0.071273424 0.018436028
000170 e5 35 7a bb 7b 04 bf bd db bf a6 bd de c7 75 bd
       -0.0038179096 -0.093270265 -0.08142062 -0.06000506
000180 06 ef 7b bc 48 9a cb bd 84 a9 a1 bc 3b 62 b8 bd
       -0.015376812 -0.09941536 -0.019734152 -0.09003111
000190 58 62 11 bd e2 b9 a5 bd c8 61 f9 bd 12 e8 ae 3c
       -0.03549418 -0.08092095 -0.121768534 0.021350894
0001a0 0a f9 a5 bd a8 14 79 bd 23 e7 10 be 3a b3 d8 bd
       -0.08104141 -0.060810715 -0.14150672 -0.1058106
0001b0 11 f8 9c bb 3b 54 08 bd de 00 db bd 64 b9 85 bd
       -0.004790314 -0.033283453 -0.10693525 -0.06529501
0001c0 12 cd 0a bd 83 e9 d0 bd 8c 64 89 3b 79 09 02 be
       -0.033886977 -0.10200789 0.0041928943 -0.12698926
0001d0 c5 4b 15 be 18 0e 5d b9 b2 42 92 bd e8 23 12 be
       -0.14579685 -0.00021081453 -0.07141627 -0.1427151
0001e0 38 c5 43 bb f6 5b 0d be 3b 02 a3 bd 34 08 d4 bd
       -0.002987219 -0.13804612 -0.0795941 -0.10353127
0001f0 1e 24 3f bd 94 3b a0 3c 1e e4 a2 bc e8 76 84 bd
       -0.046665303 0.019559659 -0.019884165 -0.06467992
000200 4c 72 5f bb 6b df 91 bb 31 51 1a 3c 42 ff 89 3c
       -0.0034095226 -0.0044516823 0.009418772 0.01684535
000210 7d 20 5a bd 41 75 0b be 9f 44 1f be b1 6e 1b bd
       -0.05325364 -0.13618948 -0.1555352 -0.03794736
000220 16 aa c3 bd ab f6 20 be fe 0e d0 bc ea 87 46 bd
       -0.09553926 -0.15719096 -0.025397774 -0.04846946
000230 14 e0 18 bd 92 f2 0d be 9e d2 93 bd 34 92 07 be
       -0.037323073 -0.13862064 -0.072179064 -0.13239366
000240 22 e7 17 bd 04 50 64 bd 8b 85 b8 bd db 69 de bd
       -0.03708566 -0.05574037 -0.09009846 -0.10860034
000250 06 f8 c5 bd f8 fe 3b bd e0 57 89 3c df 4c c3 bd
       -0.09666447 -0.045897454 0.016765535 -0.095361464
000260 e4 32 11 be e8 ae 53 3c cc 70 ae bd 82 74 f7 bd
       -0.1417957 0.012920119 -0.08517608 -0.12082769
000270 2b 3b f3 bd 47 9d 52 bd 83 a7 96 bd 87 82 8f bd
       -0.1187652 -0.051419523 -0.07356169 -0.07007318
000280 15 e3 ae 3a ac 1a 16 be d8 00 14 be 98 28 d1 bd
       0.0013342822 -0.14658612 -0.14453447 -0.10212821
000290 61 45 87 bc 94 e8 96 bd d8 95 02 be f5 ba f3 bb
       -0.016512575 -0.073685795 -0.12752473 -0.0074380585
0002a0 20 32 77 bd b5 00 de bb c0 fb e4 bd 17 b3 0c be
       -0.060350537 -0.0067749866 -0.1118083 -0.13740192
0002b0 20 f4 06 be f0 ee 8f bd 0e 13 af bd 19 40 89 3b
       -0.13179064 -0.070279956 -0.08548556 0.0041885492
0002c0 ef 00 e6 bd aa d2 14 be c7 76 76 bd 89 09 3c bd
       -0.11230647 -0.14533487 -0.06017187 -0.04590753
0002d0 5f dc c7 bd 6c 6f bc bd a9 df 36 bd 49 ce 5a 3c
       -0.09758829 -0.092009395 -0.044646893 0.013354846
0002e0 19 48 af bd d6 47 64 bd a8 17 2f 3c 0e 99 a7 bc
       -0.085586734 -0.05573257 0.010686792 -0.020458724
0002f0 92 72 3a bb 8e 60 de bd 7a b8 84 bd 1b f5 09 3a
       -0.0028449637 -0.1085826 -0.064804986 0.0005262659
000300 11 30 d4 bd 1b bb 89 bd 87 a6 03 be 54 b4 d3 bd
       -0.103607304 -0.06725141 -0.12856494 -0.10337129
000310 50 9d a7 3b 9b ae 31 bc 55 79 99 bd 54 08 18 be
       0.0051151887 -0.010844852 -0.074938454 -0.14846927
000320 74 d2 f0 bc 74 c9 b9 bd 99 1e dc bd 4a 4a bb bc
       -0.029397227 -0.09071627 -0.107480235 -0.022862572
000330 4f 75 e1 bd e7 a1 f7 bb 8c 95 2b 3c 95 a6 c1 bd
       -0.11008703 -0.007557142 0.0104726665 -0.09455601
000340 6a 21 15 be a9 46 d3 3b e2 c6 9d bc bf a5 88 bd
       -0.14563528 0.0064476323 -0.019259874 -0.066722386
000350 ca 0e 8b bd c8 6c 79 bd 4c 72 18 be 8b f9 9a 3a
       -0.0678993 -0.060894758 -0.14887351 0.0011823637
000360 81 6c 9e bd e8 87 e8 bc 20 e0 c2 bd 27 13 d8 3b
       -0.07735539 -0.028385118 -0.09515405 0.00659408
000370 6b 2b ea bc 1d 16 50 3b be 0b 7d bd 00 0d 70 bd
       -0.028585156 0.0031751462 -0.061778776 -0.058606148
000380 6e d2 ce bc 86 87 da bd 9b 04 5a bd 12 2b a1 bd
       -0.025246825 -0.1067038 -0.05322705 -0.07869543
000390 ad d8 c4 bd 6c db 28 bc 3f 68 92 bd c7 54 d4 bd
       -0.0961164 -0.0103062205 -0.071487896 -0.103677325
0003a0 c9 72 0f bd b4 e3 96 bd 4f c1 a8 bd 94 72 9a bd
       -0.035021577 -0.0736765 -0.08239996 -0.07541385
0003b0 f0 98 a4 bc b0 99 91 3b df 93 e2 3a db 65 bb bc
       -0.020092458 0.00444337 0.0017286501 -0.022875717
0003c0 d4 d1 6b bc c8 94 d1 bc 68 5a 0c be dc 16 4f bd
       -0.014393289 -0.02558364 -0.13706362 -0.05055891
0003d0 fe 6b 8d bd c5 28 f5 bd 57 97 ba bd 90 88 a9 bc
       -0.069053635 -0.11970667 -0.09110897 -0.020695
0003e0 a8 79 11 bc cf 51 1f be 82 2d 30 3c 57 10 d4 bd
       -0.008879103 -0.15558551 0.010753037 -0.10354679
0003f0 67 b4 9f bd 58 a9 82 bd da f1 3e bd 46 6a df bd
       -0.07798081 -0.06379956 -0.046617366 -0.10908942

bias f4 [64]
000000 e1 95 f8 bd de f9 00 be f0 11 a2 3f 55 a5 a8 bd
       -0.12137962 -0.12595317 1.2661724 -0.082346596
000010 c4 2b ac 3f ad 92 ab 3f f0 6a 99 bd 79 cc 04 be
       1.3450856 1.3404137 -0.074911 -0.12968625
000020 65 c8 b4 3f 1d 50 9c 3f cd 6f 93 3f 72 c0 b5 bc
       1.4123656 1.2211949 1.1518494 -0.022186492
000030 1d 93 a0 bd 1a 89 02 be 2f 97 9a 3f da e4 c2 bd
       -0.0784056 -0.12747613 1.2077388 -0.09516306
000040 96 d5 b8 3f d4 67 0b be 4c c7 8a 3f 41 23 e5 bd
       1.4440181 -0.13613826 1.084207 -0.11188365
000050 47 b6 84 3c 6e b0 98 3f df e6 98 3f 2a ec ae 3f
       0.016200198 1.1928842 1.1945456 1.3665822
000060 61 65 f2 bd dd 05 b7 3f 81 8a 6a 3c 1c d0 28 bd
       -0.11835743 1.4298664 0.0143152485 -0.041214094
000070 87 c8 b4 3f 51 c7 a4 3f 8f 4e af 3f 35 f5 15 be
       1.4123696 1.2873327 1.3695849 -0.1464432
000080 d3 3e f8 bc 6d a9 a9 3f d5 92 e9 bd 80 11 af 3f
       -0.030303394 1.325483 -0.11404959 1.3677216
000090 75 33 06 be ae 78 a2 3f 28 c3 ac 3f cc 44 ea bd
       -0.13105567 1.2693079 1.3497057 -0.11438903
0000a0 d4 1d a0 3f 8a 92 8c bc 93 c3 b8 3f 00 4b 5d bd
       1.2509103 -0.017159719 1.4434685 -0.054026604
0000b0 b4 9c fc bb c6 c3 b5 3f a4 fc 40 bb 5e dd a5 3f
       -0.00770911 1.420037 -0.002944746 1.2958181
0000c0 eb cc c1 3f f3 d6 25 bd 46 eb a9 bd 38 ed 9c bd
       1.5140661 -0.040488195 -0.08296828 -0.076624334
0000d0 78 f0 75 bd fe 7a a9 3f 6f 87 73 bd e2 19 3c 3c
       -0.060043782 1.3240659 -0.05945533 0.01148078
0000e0 65 11 9f 3f d1 2a 36 bd 83 53 a5 3c c5 01 ec bd
       1.2427183 -0.044474427 0.020181423 -0.11523775
0000f0 81 03 b5 3f 7d 7d 90 3f 9b e8 a6 bc 1d ac 0f bd
       1.4141694 1.1288296 -0.020374587 -0.03507625

weight f4 [1, 64]
000000 e3 1c c2 bc fd 19 c4 3a 05 18 1e 3f 64 01 d3 3c
       -0.023695415 0.0014961358 0.617554 0.025757499
000010 f4 b6 01 3f d9 ca 17 3f f2 51 16 3c f0 e3 07 bc
       0.5066979 0.59293896 0.009174811 -0.008294091
000020 58 95 04 3f 75 53 03 3f 48 d3 19 3f a6 fd f0 bc
       0.5179038 0.5129922 0.60088015 -0.029417824
000030 32 9a 65 3d 15 54 f4 bc bd 58 25 3f 27 0a 1e bd
       0.056055255 -0.02982525 0.6458853 -0.0385839
000040 39 70 0c 3f 91 f5 79 bd ee dd 10 3f 20 ab cd bc
       0.5485874 -0.061025206 0.5658864 -0.025106013
000050 02 58 a8 bc 82 c6 23 3f 55 5c 12 3f 74 16 0a 3f
       -0.020549778 0.63974774 0.5717214 0.5394051
000060 7f f1 2b bd a1 24 1e 3f 70 45 51 bd 72 6f 14 bc
       -0.041978355 0.6177464 -0.05109161 -0.009059774
000070 1b b6 06 3f 31 ca 12 3f a1 c9 1b 3f af f2 b9 40
       0.5262162 0.5733977 0.60854536 5.8108745
000080 db ce 2c 3d 58 0f 0e 3f af b7 21 3b 9d 8f 1d 3f
       0.04218946 0.5549216 0.0024676134 0.6154726
000090 17 3f ac 3c 73 c6 15 3f 81 4f 09 3f 36 be 69 bd
       0.021026177 0.58505934 0.5363694 -0.057066165
0000a0 16 ee 28 3f 71 6b 92 bb 6d 13 1a 3f 65 66 cb bc
       0.6598829 -0.0044683744 0.6018589 -0.024829099
0000b0 82 d2 06 bd cb 08 03 3f 34 5e d5 bb 4a 9c 1a 3f
       -0.0329156 0.5118529 -0.006511474 0.6039473
0000c0 4f 13 0e 3f dd 65 cf 3c 5c 9f 51 bc 4d 97 32 3d
       0.5549821 0.025317127 -0.012794342 0.043601323
0000d0 e7 f0 0e 3d 78 9f 0d 3f fe a4 37 3d 30 d1 c5 bc
       0.03489771 0.55321455 0.044835083 -0.0241476
0000e0 36 5e 27 3f 18 ee 69 bd 7f 23 01 3c fa 4d fc ba
       0.6537813 -0.05711183 0.007881998 -0.0019249313
0000f0 c1 8d 0a 3f 39 be 1c 3f d5 67 2d 3c 5e e8 41 3d
       0.5412255 0.61227757 0.0105838375 0.047340743
