results/best_model.pt (torch, 72595 bytes, 9 tensors)

embed0.weight f4 [42, 16]
000000 49 1e 34 3e ba 27 16 3f ec 42 df bf 7d 4e 4e 3e
       0.17589678 0.5865437 -1.7442298 0.20147128
000010 c6 81 a4 be 5e 03 54 3f f3 21 a3 be 58 bb f6 be
       -0.3213026 0.8281764 -0.3186184 -0.48189807
000020 e0 d5 b5 3f 84 fb 40 3d b4 17 fb be 99 0f f1 bf
       1.4205894 0.047114864 -0.49041522 -1.8832885
000030 87 58 df 3d bd da 01 c0 34 07 4d be c5 1d 71 bc
       0.10905557 -2.0289757 -0.20022279 -0.01471657
000040 34 99 3f 3f e6 4e 1d bf fa 98 a0 3f 8b 51 5c 3f
       0.74843144 -0.61448514 1.2546685 0.86061925
000050 41 fe 17 3e 2c 92 af bf a4 63 ce 3c 2d ba f9 3e
       0.14843084 -1.3716483 0.025193997 0.48774853
000060 5d 29 02 bf 24 00 0d bf c3 2d 98 be 48 c7 fd be
       -0.50844365 -0.5507834 -0.29722413 -0.49566102
000070 b8 50 32 be 35 7b c1 3f 1c 1b e1 3f c2 28 12 40
       -0.17413604 1.5115725 1.7586398 2.2837377
000080 91 23 12 be 83 82 2e bf f0 51 24 3f e9 85 64 3f
       -0.1427138 -0.68167895 0.64187527 0.8926683
000090 a1 9c 68 bd 94 c8 13 3f 7b 3c c3 bf ac 32 44 bf
       -0.056789998 0.5772793 -1.5252832 -0.7663982
0000a0 c9 62 3a bf be 1d a9 3c 1e b4 00 bf 2c 29 8c 3f
       -0.72806984 0.020644065 -0.50274837 1.0950065
0000b0 c3 c0 13 be a9 88 eb bd c9 97 d9 3e c6 7d 56 3e
       -0.14429002 -0.11500675 0.42498615 0.20946416
0000c0 f3 2c 66 bf 29 a7 9c bf af b4 f3 3d e0 3b 8d 3f
       -0.8991234 -1.2238513 0.11899697 1.1033897
0000d0 12 e6 b7 3f e7 6a 4a be e8 56 09 3e 4a ff e7 3d
       1.4367087 -0.19767343 0.13412058 0.113279894
0000e0 fd 20 20 bf 35 de 38 3e 96 9a 99 3e da 00 f7 be
       -0.62550336 0.18053515 0.30000752 -0.48242837
0000f0 4a c6 b8 bd 9d ef 35 3f cf ea 9f bf 76 ba 0f bf
       -0.09022196 0.71068746 -1.2493533 -0.5614389
000100 47 e4 cf bf 50 36 9a bf 1c 72 d0 be fb d5 8f ba
       -1.624154 -1.2047825 -0.4071206 -0.0010973805
000110 02 ac e4 3f e9 ff 31 3e c6 0e 56 3f 10 39 b6 3f
       1.7864993 0.17382778 0.8361629 1.4236164
000120 1f 59 77 3f 51 4e 6f 3f 77 54 28 bf e0 67 16 bf
       0.96620363 0.93478876 -0.65753883 -0.5875225
000130 09 46 60 be 26 0f 4b be a2 4f a1 bf 06 2d 16 3f
       -0.21901716 -0.19829997 -1.2602427 0.5866245
000140 89 86 02 bf 03 2a c6 3e 4e 94 0b c0 f5 56 9c be
       -0.50986534 0.38703927 -2.1809268 -0.30535093
000150 e4 84 31 be c2 0f e1 bf 4a 8e 55 3f ba 02 64 3f
       -0.1733585 -1.7582934 0.8342024 0.8906666
000160 76 b8 26 bf 78 0a 56 bd 3e d3 77 be 51 96 45 3f
       -0.65125215 -0.052256078 -0.24201676 0.7718249
000170 c5 b4 95 bf 99 30 a0 3e bf 50 bd 3f f8 f3 9e 3f
       -1.1695791 0.31287077 1.4790267 1.2418203
000180 20 fd 13 bf 67 69 a0 bf be dc 19 bf db 6e 97 bf
       -0.57808113 -1.2532166 -0.6010245 -1.1830705
000190 f0 4b a4 3f 31 86 6a bf 34 09 8c bf 58 83 fd be
       1.2835674 -0.9161101 -1.0940309 -0.4951427
0001a0 48 2b 08 3f 18 24 29 be 04 2b 0d bf 9e 25 64 3d
       0.5319104 -0.16517675 -0.5514376 0.055699937
0001b0 b4 0d 03 bf 67 ec e0 be 12 ef 38 3f 87 ee 85 3f
       -0.51192784 -0.4393036 0.7223979 1.0463418
0001c0 fc b8 b8 bb ad 47 e0 bf 4a 8d 8b be 09 55 e4 be
       -0.005637286 -1.7521874 -0.27256233 -0.44596127
0001d0 c7 a3 56 be 9a 77 60 bf 0e 88 03 3f 9f ba 0a 3f
       -0.20960914 -0.876825 0.5137948 0.5419101
0001e0 aa ee 80 bf ad 46 f2 be b5 d4 c8 3c d5 14 77 3f
       -1.0072834 -0.47319546 0.02451549 0.9651616
0001f0 db b5 18 bf a8 6c a1 be 60 76 8d 3d b8 6b dd 3f
       -0.5965249 -0.3152821 0.06907344 1.7298498
000200 46 08 29 bf 2a a5 12 3f d5 0c c9 bf 5a 27 05 bf
       -0.6602825 0.5728327 -1.5707041 -0.5201317
000210 07 18 d1 be 96 29 9b 3e 8d ba 2a bf 88 84 13 bf
       -0.40838644 0.30305165 -0.66690904 -0.576241
000220 83 51 a5 3e 9c 80 ac be 23 99 af bf 0b 4b c1 3d
       0.3228875 -0.3369187 -1.3718609 0.094381414
000230 56 53 c7 bf 76 89 73 3e e1 2d b2 3f c4 a8 64 3d
       -1.5572307 0.23782906 1.3920251 0.05582501
000240 45 28 84 bf 72 82 85 bf ca 48 ce 3e d4 05 6c bf
       -1.0324789 -1.0430434 0.4028991 -0.92196393
000250 6e 73 3a 3d fc 33 12 bf 2a 5a 48 bf 77 2a f4 bd
       0.04552024 -0.5711057 -0.7826258 -0.11922162
000260 72 b0 a4 bf 2e a7 45 3f 3f b2 0e c0 67 b6 28 3e
       -1.2866347 0.7720822 -2.2296293 0.16475831
000270 15 e3 0a 3f 51 33 84 3f 66 76 8a 3f c5 0e 59 bf
       0.5425275 1.032816 1.0817382 -0.8478816
000280 0e 80 40 bf 88 4c 9c be 1a 99 24 bf b3 77 dc 3f
       -0.75195396 -0.3052714 -0.64296114 1.7224029
000290 79 bb f8 bd e1 0b aa bd 87 1e 35 3e 69 12 74 3f
       -0.121451326 -0.08303047 0.17687427 0.9534059
0002a0 ce f8 dd be 7f 82 88 3f 87 64 bf 3c 8c 07 d9 3e
       -0.43353885 1.0664824 0.023363365 0.4238857
0002b0 df 34 53 bf fc ea 12 3f 58 95 dc bd cc a4 01 bf
       -0.8250255 0.5738981 -0.107706726 -0.50642085
0002c0 52 2d a6 3f d3 b5 89 3e bf 02 55 be 79 72 9a 3c
       1.2982581 0.26896533 -0.20801829 0.018853413
0002d0 70 29 e2 bf b7 d3 86 3f 62 b3 f8 3e 4a 14 e6 bf
       -1.7668896 1.053336 0.48574358 -1.7974942
0002e0 6c 75 79 3f cc e3 8f bf 4c 46 8f bf ae 11 69 be
       0.97444797 -1.1241393 -1.1193328 -0.2276065
0002f0 0a 8d 19 bf 07 8c f0 3e 09 a2 34 bf 20 90 6c 3f
       -0.59980834 0.46981832 -0.70559746 0.9240742
000300 ae 5c a2 bf 4c 43 9c be d2 19 ba be ed 3e 9f 3f
       -1.2684534 -0.30520093 -0.36347824 1.2441078
000310 4b ec a8 3e d0 66 bf bf 1d 0c 8a bf b7 f9 0d bf
       0.32992777 -1.4953251 -1.0784947 -0.5545916
000320 41 97 d6 bf 1f 9a 13 3f c9 36 a2 bc ca eb 5e 3f
       -1.6764909 0.57657045 -0.019801514 0.87078536
000330 98 09 7f bf 03 f1 aa bf 51 be aa 3f 0d 2d 52 3f
       -0.99624014 -1.3354801 1.333933 0.8209999
000340 71 ed 50 bf 69 89 57 bf 18 b6 c5 be fd 60 99 3e
       -0.81612307 -0.84194046 -0.3861549 0.2995681
000350 37 5c 92 be 96 f4 55 3f fa 3f 41 be de d3 03 bf
       -0.2858598 0.83576334 -0.18872061 -0.5149516
000360 57 ba d0 3f 18 83 92 3e 46 8a 2b 3f b0 76 f1 3d
       1.6306866 0.28615642 0.67007864 0.11790216
000370 01 68 d0 bf b0 0b c9 bf 56 48 e8 3e e5 40 22 3e
       -1.628174 -1.5706692 0.45367688 0.15845068
000380 be b1 bc bf 55 a3 1c c0 32 02 49 bc ef 5e 7c 3f
       -1.4741743 -2.447469 -0.01226859 0.9858236
000390 62 d4 20 c0 d0 79 d2 3e bc 40 bf ba 2d 6c f2 be
       -2.5129628 0.4110856 -0.0014591436 -0.47348157
0003a0 e1 a2 8d 3f 8a 83 42 3d a2 da 12 3f cb b1 3f bf
       1.1065332 0.047488727 0.5736486 -0.74880666
0003b0 d0 bd 8f be 63 e7 98 3e 4e 56 5b be 5c a1 74 bf
       -0.28074503 0.29864034 -0.21419641 -0.95558715
0003c0 9d 77 24 3f 8b 33 25 bf bf e1 11 3f cf af 92 bf
       0.64245015 -0.64531773 0.56985086 -1.1459903
0003d0 6c c9 93 3f 9d 0b 05 bf ae 75 f4 bf 21 1b e2 3d
       1.1545844 -0.51970845 -1.9098413 0.11040331
0003e0 94 0b a2 bf 8d 54 28 3f 04 8f 4b be 1b b9 30 bf
       -1.2659783 0.65754014 -0.19878775 -0.6903245
0003f0 02 19 2f 3f 7d 0f ae bf a8 03 16 3f 83 38 97 3f
       0.68397534 -1.3598477 0.5859933 1.1814121

embed1.weight f4 [448, 8]
000000 da 8f 39 3f b7 55 82 be e8 17 dd bf 14 40 35 3f
       0.72485125 -0.2545602 -1.7272921 0.708009
000010 d6 d4 9a 3f b0 9c bc 3e db 76 8a bf 76 82 47 3f
       1.2096202 0.36838293 -1.0817522 0.7793344
000020 98 70 3c 3f 03 c3 50 bf 91 b4 bb 3f a7 a7 b1 bf
       0.73609304 -0.81547564 1.466448 -1.3879288
000030 d1 73 48 be c0 26 d1 be e1 3f 09 3e 76 26 17 40
       -0.1957543 -0.40849876 0.13403274 2.3617225
000040 ba a7 59 bf 51 f4 92 3f 99 ea 16 bf 36 0e ab 3a
       -0.85021555 1.148081 -0.5895172 0.00130505
000050 5e 4b 36 3f 9e 3a 9f 3f c3 d8 8e bc 21 e1 8a 3f
       0.7120875 1.2439764 -0.017437344 1.0849954
000060 49 b4 e5 be 46 ee 71 be 44 9b eb 3f 21 96 a4 3e
       -0.4486411 -0.2362605 1.8406758 0.3214579
000070 8e 32 1b 3d 9b 49 23 bf 35 1f 2b bf b1 1a 67 3f
       0.03789001 -0.6378419 -0.66844493 0.902751
000080 32 84 dd be 59 6c 33 3f 64 cf 77 3d b7 87 f1 bf
       -0.4326492 0.700872 0.060500517 -1.8869542
000090 52 2a 5e be 7f 17 d2 3e 52 1e f5 3f f9 52 83 bf
       -0.21695831 0.4103355 1.9149878 -1.0259696
0000a0 9b 6d ea bd da 21 62 bd f2 c0 be bf 19 bb de 3e
       -0.11446687 -0.055208065 -1.4902632 0.4350212
0000b0 c5 11 40 bd e4 40 83 bf 0d 36 55 bf bc 07 fe 3f
       -0.046891946 -1.0254178 -0.832856 1.984611
0000c0 5f 6c d4 3e 7d cf 1e bf 8e 4e 8d 3f 72 f1 0c 3f
       0.4148893 -0.6203535 1.1039598 0.55055916
0000d0 cf 2f a4 3f 35 7e 7e be f0 a1 18 bf da 3e ad bd
       1.282709 -0.24852832 -0.59622097 -0.084592536
0000e0 fc ff 5e bf f1 b9 a0 3e 7e be 9a bf 14 98 4c 3f
       -0.8710935 0.31391862 -1.2089384 0.7991955
0000f0 1a fb 2c bf 0d 0f e5 3d 3e 1c ed be 76 19 c8 3d
       -0.6757065 0.11184511 -0.4631061 0.09770481
000100 5b 9e fd be cf fc c3 bd 64 9c 4b 3f 10 82 ea 3f
       -0.49534878 -0.09569704 0.7953551 1.8320942
000110 14 10 d0 3f 3a f9 d0 bf 83 b9 30 3f 14 0d b7 be
       1.6254907 -1.6326058 0.6903307 -0.35752165
000120 07 8a a3 be ef 13 4a 3f 7e b3 64 3f 8e df 4b bd
       -0.31941244 0.78936666 0.89336383 -0.049773745
000130 be e8 d4 3e 68 5e dd be 8b f0 2a 3d dc ce df be
       0.41583818 -0.4323609 0.041733306 -0.4371251
000140 05 8d 11 bf 1b aa 2f 3f b4 f3 7e 3c b7 8a 01 3f
       -0.56855804 0.68618935 0.015561033 0.5060229
000150 1a 97 77 3e fb 09 9f 3e f2 2e 78 bf 2f 7e 57 3e
       0.24178734 0.31062302 -0.9694663 0.21044229
000160 a2 44 31 3f 1b d3 39 3f be cf fc be 09 01 c5 be
       0.6924535 0.72587746 -0.49377245 -0.38477352
000170 ba fb 33 3f ba f4 2e bf 1e 82 f5 3e ff 4e b2 3e
       0.7030598 -0.68342173 0.47950834 0.34825894
000180 6e ec 5f bf 28 6e 97 3e 0d 6f 95 be 38 8c a2 be
       -0.8747014 0.2957623 -0.29186288 -0.31747603
000190 9f cd c2 3d 51 09 a1 3d 0e 99 94 3e 12 74 7b bf
       0.09511875 0.07863105 0.2902302 -0.98223984
0001a0 83 16 86 bf 8a 49 9c 3f 65 23 f9 be 47 27 8c 3e
       -1.047562 1.2209942 -0.48659816 0.27373716
0001b0 a0 22 4b 3e e1 27 a5 3d 03 81 a4 3f b2 de 49 bd
       0.19837427 0.08064247 1.2851871 -0.049284644
0001c0 fc 55 3c 3e 4c da d0 be 74 79 c1 3e 30 50 6a 3f
       0.18392175 -0.40791547 0.37787974 0.91528606
0001d0 40 4b c9 3f 3f 0c 6d 3f 88 81 0e be 05 7d cc 3d
       1.572609 0.9259681 -0.139166 0.09984783
0001e0 d0 cc ed be 3e b3 85 3d 9c 98 0f 3f 84 13 93 be
       -0.46445322 0.06528328 0.5609224 -0.28725827
0001f0 36 26 ae 3f d9 58 ac 3e bd ef 30 3e fc 41 88 3f
       1.3605411 0.33661535 0.17278953 1.0645137
000200 0e b9 cb be 0c b5 98 3c cc 58 26 bd df 64 af 3f
       -0.39789623 0.018641017 -0.040612027 1.3702658
000210 1c b7 85 3f 8b 5f 13 40 52 3b 4b bf 8c 21 da bd
       1.0446506 2.3027065 -0.7938739 -0.1065093
000220 14 0b c6 bf fd d7 42 3f 60 b4 16 bf d8 27 02 bf
       -1.5472131 0.7611082 -0.5886898 -0.50842047
000230 7e df 3d 3f e9 c8 4b bf c5 71 75 3e 94 1f 40 be
       0.74169147 -0.7960344 0.23969181 -0.18762046
000240 2e 1d d5 bc 70 f9 a3 bf 8b ad 2a 3f 8b 06 41 3f
       -0.02601489 -1.2810497 0.66671056 0.7540061
000250 78 0a 02 c0 0d e3 3f 3f fb 60 44 bf 2e 93 06 3f
       -2.031889 0.74955827 -0.7671048 0.5256833
000260 be a6 31 bf 4d 3a 86 bf 54 02 24 3f 4f 2b c3 bf
       -0.69395053 -1.0486542 0.6406605 -1.5247592
000270 83 39 9c bf 8d b3 ab bf 0f 2a 0d 3e fc 32 af 3f
       -1.2205051 -1.341417 0.13785575 1.3687434
000280 59 53 90 bf 20 e3 20 bf 90 f7 0e 3f 45 39 2d 3f
       -1.1275436 -0.62846565 0.558465 0.6766551
000290 53 8e 22 3f 09 d6 ae be e1 a9 41 bf 65 b6 f3 3d
       0.6349842 -0.3414767 -0.7564984 0.11900023
0002a0 25 cb 0d 3e f1 e8 db bf 03 49 0e bf d2 e0 45 3f
       0.13847025 -1.7180463 -0.5558016 0.77296174
0002b0 10 93 9e 3e c0 8e 8e bf 78 ee 37 bf 34 aa 1f 3f
       0.30971575 -1.1137314 -0.7184825 0.62369084
0002c0 b9 5e a3 be 19 3b 7a 3f 64 da 29 bf 9d 2a 53 bf
       -0.31908205 0.97746426 -0.6634886 -0.824869
0002d0 55 c2 15 be e3 2f 1a bd 55 7a ca bd 63 39 1f bf
       -0.14624913 -0.037643325 -0.09886614 -0.6219694
0002e0 9f 31 91 3f 8a 73 5f 3f e9 7f 85 bf 24 e4 96 be
       1.1343268 0.87285674 -1.042966 -0.29470932
0002f0 62 c8 e3 3e 15 7b 5d bd 56 3f 72 be d9 ca c8 bf
       0.44488817 -0.05407246 -0.23656973 -1.5686904
000300 70 d0 2b 3f 89 15 3b bf be 0d 96 3d fb dc 84 3f
       0.67114925 -0.73079735 0.0732684 1.0379938
000310 d7 ad d6 3d 79 0d d2 bf 50 16 89 3f 70 8e 20 3f
       0.10482376 -1.6410362 1.0709934 0.6271734
000320 2f b8 c0 be 61 be 08 3f 48 f5 1a c0 6e af d2 be
       -0.3764052 0.53415495 -2.4212208 -0.41149467
000330 de ab 96 3e 50 b0 0b bc 15 10 c9 be fd 60 ee be
       0.29428 -0.008525923 -0.39270082 -0.4655837
000340 c4 22 3d be 11 3f cf bf fb 29 11 c0 bf 40 a3 3e
       -0.18470293 -1.6191121 -2.2681873 0.31885335
000350 c3 c9 ac be ba e2 36 be 9b 39 ae 3e 70 1c 39 3f
       -0.33747682 -0.17859927 0.34028324 0.7230902
000360 dd 32 a4 3f e5 da 75 bf 01 50 94 3f 73 a4 9b 3e
       1.2828022 -0.9603713 1.1586915 0.30398902
000370 9f 99 ef 3e 73 79 80 bf b4 64 6d 3f 01 3c 14 3f
       0.4679689 -1.0037063 0.92731786 0.5790406
000380 80 d1 9f 3f c2 f8 fd be 18 25 f2 bd 5e c4 9b be
       1.2485809 -0.4960385 -0.11823481 -0.30423254
000390 a3 10 0b c0 08 f9 26 3f d5 3a 65 3e cc 4a 31 be
       -2.1728904 0.6522374 0.22385724 -0.17313689
0003a0 6f d6 9c 3f 4f 64 19 be db 59 1a bf c8 b7 3e 3e
       1.225294 -0.14979671 -0.6029336 0.18624794
0003b0 64 52 18 bf 9d 72 85 3f c2 d2 e0 3d 87 c9 d1 3d
       -0.5950072 1.0425602 0.10977699 0.102435164
0003c0 db 4b 55 3e a2 ed ab bf d6 96 97 bf e4 8c 21 be
       0.20829718 -1.3431895 -1.1842906 -0.15776402
0003d0 84 91 24 bf aa 40 a5 3e 57 79 16 3f cc 9e f3 be
       -0.6428454 0.32275897 0.587789 -0.4758209
0003e0 8d fb a8 bf 55 d2 2f bf 36 c1 1b be b2 1b ad 3f
       -1.3201767 -0.68680316 -0.15210423 1.3524077
0003f0 8b 86 19 be f7 6d 27 3f bf 75 d1 bd f9 1c 5c 3e
       -0.1499273 0.6540217 -0.102275364 0.21495427

layers.0.weight f4 [128, 32]
000000 16 f5 3c 3f f4 23 cf 3e 22 0e 3b 3e a8 b7 53 3c
       0.7381147 0.40457118 0.1826711 0.012922205
000010 e9 38 2b be 8f 0c 3b 3f 30 2f 51 3d 48 21 01 3f
       -0.16720928 0.7306604 0.051070392 0.5044141
000020 42 e7 a9 3e 2c 73 b3 be 10 4d 41 3f 92 7d 34 3e
       0.33184248 -0.35048807 0.75508213 0.17626026
000030 bd 07 4a bd 1f 20 26 3e 57 ab d4 3d 91 94 e1 bd
       -0.049323786 0.1622319 0.10384243 -0.11014665
000040 f8 a5 93 3d b4 07 b4 3e 5a 33 45 be 6c f4 eb 3d
       0.072093904 0.35162127 -0.1925787 0.11521229
000050 ea 57 aa be 35 1d 04 bf 2e 36 6b 3e 4a 5a 79 bd
       -0.33270198 -0.51607066 0.22969887 -0.060877122
000060 97 5e 82 be b4 cc 2e 3e d9 a8 76 bf 82 34 92 3f
       -0.2546279 0.17070276 -0.9635139 1.1422274
000070 e9 85 97 3f 52 67 99 3e 2d 42 07 bd 0b d0 07 bf
       1.1837741 0.2996164 -0.033022095 -0.53051823
000080 0b ea 09 3e 9f dd 17 3f 83 1b 60 3e 69 fe 8b be
       0.13468187 0.5932254 0.21885495 -0.27342537
000090 09 f3 a0 3e 79 8b 1a bb ef 76 de be 64 e4 88 3e
       0.3143542 -0.0023581667 -0.43450114 0.26736748
0000a0 d8 db c9 3d 39 e3 30 3e 56 16 5d 3d 6d d2 cc 3e
       0.09856385 0.17274179 0.05397638 0.40004292
0000b0 de e4 b6 bc ca eb bf be 5c 83 08 3e fa ca 4d 3d
       -0.02232593 -0.3748458 0.1333136 0.0502424
0000c0 6d 5e 83 bd 0a 07 a8 3e 72 db ea be 16 c0 61 3f
       -0.06414495 0.3281787 -0.45870548 0.88183725
0000d0 99 07 41 3e 57 62 24 3d 4c 0a 51 3d 49 70 5e bf
       0.18850555 0.040132847 0.05103521 -0.86890084
0000e0 71 59 e0 be ca 88 b9 be d4 31 8f 3f 4d 74 d5 3e
       -0.43818238 -0.36237174 1.1187081 0.41690293
0000f0 c9 e9 b8 3d 31 5d 29 3f e4 14 55 be 1e 5e 2d 3e
       0.09028966 0.66157824 -0.2080875 0.16930434
000100 b1 68 51 be 4e 9a ed bd 90 bb 96 3e 49 1d d2 bc
       -0.20450093 -0.11601697 0.29439974 -0.02564873
000110 1b 07 32 3c 8c fd a5 bc 91 03 c1 be c1 37 0d 3e
       0.010865952 -0.020262502 -0.37698033 0.137908
000120 a9 63 a2 3d e3 c2 05 3e 82 39 2c be 4e 54 a1 3e
       0.07929165 0.13062625 -0.16818812 0.31509632
000130 3f 31 c2 be 51 b8 5c bd e1 19 35 3e 43 a3 24 be
       -0.37928197 -0.053886715 0.17685653 -0.16077904
000140 d7 df a5 3e a9 4f 96 3e 1d 66 ac 3d c0 3e d3 3d
       0.3239734 0.2935765 0.08417914 0.10314703
000150 09 9f 20 3f f0 b1 b1 3e 6e 0d ba 3e 19 37 35 3e
       0.6274267 0.34706068 0.3633837 0.176968
000160 58 c4 15 3f b7 16 f7 be 54 bd 50 bf 90 02 45 3f
       0.5850272 -0.48259518 -0.8153889 0.76957035
000170 fc d2 99 3e c0 3b f0 3d 11 8c 0a 3d 1f 7f 9e 3e
       0.3004378 0.117301464 0.033824984 0.3095636
000180 32 ac a4 3e 0c df 85 3e 31 77 9b 3d be c5 ad 3e
       0.32162625 0.26146734 0.07591093 0.33939928
000190 90 87 09 3e 82 89 c4 bd f9 c6 fb 3e cc 2c fb 3b
       0.13430619 -0.0959654 0.49175242 0.0076652523
0001a0 e0 94 22 be 2d 5b 55 3d 2a 25 18 be f3 27 f5 3e
       -0.15877104 0.052088905 -0.14857927 0.4788204
0001b0 4e c7 e2 3e b8 af af be b7 64 71 bf f7 a1 98 be
       0.44292682 -0.3431375 -0.94294304 -0.2981107
0001c0 c2 80 ab be 86 8e ba be 47 1a 27 3e 10 e2 d1 3d
       -0.33496672 -0.36436862 0.16318618 0.10248196
0001d0 bb 48 33 bd 3b 34 62 bf a8 98 c5 3e 97 83 db 3e
       -0.043770533 -0.8836095 0.3859303 0.42873833
0001e0 2a 42 23 3e 60 f5 2a bf 57 66 96 3d 0e af 0a 3f
       0.15943208 -0.6678066 0.073437385 0.5417336
0001f0 85 9b 07 3f ae 7b c8 3e f1 d1 b8 3e 3e 34 a4 be
       0.5297168 0.3915686 0.36097673 -0.32071108
000200 08 ea 5a be cb 59 2b 3e 19 54 9f 3e 72 2e 87 3e
       -0.21378338 0.16733472 0.3111885 0.26402622
000210 ed ac 91 be f5 f4 7e 3b 7d 5d 11 be 2c 79 58 3e
       -0.28452244 0.003890333 -0.14195819 0.21139973
000220 8e c1 00 3d 7a fc 8f be f5 dc ee bc 9b fb 8a 3e
       0.031434588 -0.28122312 -0.029158095 0.27145085
000230 95 cf 97 be ae 40 d0 3e 92 e5 14 3e 11 e5 7b 3e
       -0.2965056 0.40674347 0.14540699 0.245991
000240 80 d0 11 3f 8e 33 48 bf 50 45 e8 3e 28 fa 20 3e
       0.5695877 -0.78203666 0.4536538 0.15720427
000250 ca 27 d2 be 02 08 c7 3c 8c 46 34 3e 81 d0 05 3e
       -0.41045982 0.02429581 0.17605036 0.13067819
000260 82 e1 6f bf e6 5e 55 be 0a 4f a7 bf 6e e2 c9 be
       -0.9370347 -0.20836982 -1.3070996 -0.39430565
000270 d1 96 99 bf 73 59 6c bf 92 78 97 3d 53 e3 ae be
       -1.199915 -0.9232399 0.07396044 -0.3415781
000280 ca 42 9c bd 89 a6 47 be 0d b9 14 be 50 8f 2f be
       -0.076299265 -0.19497122 -0.14523716 -0.17144513
000290 0e 5e 63 be fc 26 1f 3e 60 ae 53 be 4c e2 4e 3e
       -0.22203848 0.15542215 -0.20671988 0.20203513
0002a0 33 7e 0f be a9 e7 2e be df be 1f be 69 b4 8d 3e
       -0.14012985 -0.17080559 -0.15600155 0.27676705
0002b0 a3 86 f9 3e 50 72 d0 3d 2c 6e 43 3e 85 45 fe 3b
       0.48735532 0.101780534 0.19084996 0.007759752
0002c0 2e 5b 25 be ef c6 42 3e 9d 4e a1 bd 70 da 64 3e
       -0.16148064 0.190212 -0.078763224 0.22348952
0002d0 0c 05 99 bd ff 50 ce be d3 b4 a6 be db 5d 81 be
       -0.07471666 -0.4029617 -0.32559833 -0.2526692
0002e0 b7 ab 0f bf 0c 37 87 bf 77 3f 8a bf e6 d7 96 3f
       -0.5612139 -1.0563674 -1.0800618 1.1784637
0002f0 aa 65 3d 3f a9 4b 43 3d 45 74 df bc bd 57 0d be
       0.7398325 0.047679577 -0.027277121 -0.13803001
000300 c9 82 a7 bd 12 9a 01 3e 04 25 19 be 03 76 1f 3f
       -0.08179242 0.1265643 -0.14955527 0.62289447
000310 2c 34 b7 bd 62 e9 2e bd 42 89 98 3e e8 92 81 be
       -0.08945498 -0.04270304 0.2979222 -0.25307393
000320 3c 5b a2 bd cf 39 1b 3d 15 20 73 3e a7 62 04 3f
       -0.07927558 0.037896927 0.23742707 0.5171303
000330 43 21 09 be ac f1 aa bd 12 ac da be 27 a2 66 3e
       -0.13391595 -0.083468765 -0.42709404 0.22522794
000340 a9 b5 94 be 24 54 8f 3e 03 93 bc bd 3c a5 a9 3e
       -0.29044846 0.27993882 -0.09207728 0.33133876
000350 12 b2 c8 bc 80 4c b0 3c d5 20 54 bc c8 c3 04 3f
       -0.024498973 0.021520853 -0.012947281 0.5186124
000360 2a 33 63 bf 19 95 3f 3f 52 60 cc 3c 6e c7 1e 3f
       -0.88749945 0.7483688 0.024948273 0.62023056
000370 16 4a fd 3e e4 b3 b6 3e ff 8a 3f be f3 f0 c2 3d
       0.49470586 0.3568412 -0.18705367 0.09518614
000380 fb 51 bf 3e 1f a7 0d 3e 32 52 09 bf 5d b2 0c 3e
       0.37367234 0.13833283 -0.53641045 0.13739915
000390 59 dc b6 3c ee aa 8f 3d c7 c0 2c 3f 09 0d 89 3e
       0.022321867 0.07015024 0.67481655 0.26767758
0003a0 fc 2c 25 bb 32 8c 58 be cb 23 a5 3e ad c7 79 3e
       -0.0025203815 -0.2114723 0.3225387 0.24392577
0003b0 fa cc 4d 3e 91 8a 02 be 4a fb fe be 5d 03 6f be
       0.20097724 -0.12748171 -0.49801093 -0.23341127
0003c0 84 e6 91 3d f4 ff f3 be cd e8 56 bd 56 9a 46 3f
       0.071240455 -0.47656214 -0.05246811 0.7757925
0003d0 d7 30 4a 3f d8 ec be 3d db 28 90 3d e1 e0 09 3f
       0.78980774 0.09322518 0.070390426 0.5385876
0003e0 16 fe 2b c0 83 b2 a5 bf 7b ba 4b bf d6 83 46 3f
       -2.6873832 -1.2945102 -0.7958142 0.77544916
0003f0 51 6d d7 3e c4 6f 21 3d 68 a3 2f 3f 57 b2 11 3e
       0.4207559 0.03941323 0.68608713 0.14228188

layers.0.bias f4 [128]
000000 ff 2b 94 be 9b 2c d6 3c 8e 94 d9 3e 72 5e 1b 3e
       -0.28939816 0.026144316 0.4249615 0.15172747
000010 73 94 55 3d 46 95 e6 3e 5f 24 9a 3e 5e 4b 60 bd
       0.052143525 0.45035762 0.30105874 -0.054759376
000020 28 41 30 3f b9 58 cc 3e 41 d7 03 3c 5e cb 85 3e
       0.6884942 0.3991144 0.008046926 0.2613172
000030 68 d1 82 3e f3 4b 94 3e bf 1a 64 3e c2 a0 82 b9
       0.2555039 0.28964195 0.22275828 -0.00024915306
000040 76 66 de 3c 18 42 a9 3d b1 a5 00 3f 78 56 f1 3c
       0.027148467 0.082645595 0.50252825 0.029460177
000050 48 57 1f bf 05 8b ee 3e c6 27 12 3f 89 5a b2 3e
       -0.62242556 0.46590438 0.5709194 0.34834698
000060 45 03 06 3e 6d a1 b0 3e 90 23 b7 3e 59 0b da 3e
       0.13087185 0.34498158 0.3576932 0.42586783
000070 84 8c 03 be b5 76 08 3f 90 d0 7d be d4 41 f2 bd
       -0.12846571 0.5330613 -0.24786592 -0.11828962
000080 c1 64 30 3f 11 74 44 be 8e 42 f2 be 80 4f 0c 3f
       0.6890374 -0.19184901 -0.47316402 0.5480881
000090 c9 5a 1d 3f cd e1 05 3e d1 e8 c5 3e ab 5c 2d 3f
       0.6146665 0.13074417 0.38654187 0.67719525
0000a0 2e 16 69 3f de 2f 18 3d b8 e3 72 3e 56 28 44 3e
       0.9104947 0.037155025 0.2371968 0.19156012
0000b0 0f e0 67 3e 5e de ad be cf 40 80 3e f9 7b aa 3d
       0.22644065 -0.33958715 0.25049445 0.08324427
0000c0 c0 95 06 3f ad 89 94 bd 66 56 2c be 8f 79 a5 3d
       0.5257225 -0.07252822 -0.16829833 0.08079826
0000d0 a8 3e 0a be 16 a8 60 3e 88 41 b9 3d 41 2b d4 3e
       -0.13500464 0.2193912 0.09045702 0.4143925
0000e0 55 44 9b 3d 18 02 54 3e 1b b5 96 3e 41 b7 75 bc
       0.07581393 0.20703924 0.29435048 -0.014997304
0000f0 2f a6 09 be ef 04 95 3e 49 ed c9 bc 0e af cb bd
       -0.134423 0.29105327 -0.02464928 -0.099454984
000100 87 f8 31 3f 66 55 96 be 79 bc 07 3f 70 95 8b 3e
       0.6951985 -0.2936203 0.5302196 0.2726245
000110 c2 c7 fb 3e 4d b8 e5 3e 08 fd e7 3e 6c 7d 5a 3e
       0.4917584 0.44867173 0.45310235 0.21336907
000120 42 b7 90 3e 40 46 d9 3e 28 4a dc 3e c3 99 69 bd
       0.28264815 0.4243641 0.43025327 -0.057031404
000130 03 4a ee bc 88 31 80 bd 59 ce 32 be 26 cd a5 3e
       -0.029088026 -0.06259447 -0.17461528 0.32383078
000140 59 d8 ff 3e d2 12 41 3d e0 b6 a8 3e 3d ca 8e 3e
       0.49969748 0.04713709 0.32952023 0.2788867
000150 7a 1e 9f 3e 9c de 33 3e 18 1b 9b bd 7f 89 48 3f
       0.3107794 0.17565387 -0.07573527 0.783348
000160 d8 da cb 3d e0 d4 09 3f f0 11 a4 3d cd f9 ee 3d
       0.099538505 0.53840446 0.08011234 0.116687395
000170 51 82 63 3d 62 0d 5b 3d a0 4b 1f 3e 55 d4 36 3f
       0.0555442 0.05347956 0.15556192 0.7141774
000180 08 24 10 3e 28 07 5d 3e d8 5b 51 3f b3 4e 72 3e
       0.14076245 0.21584761 0.8178077 0.23662834
000190 4e 2f 8f 3e c2 0d f6 bd 31 94 d9 3e 1e 5e cb 3e
       0.27965778 -0.12014343 0.42495874 0.39720243
0001a0 18 5b f9 3d 7e a9 86 3c 53 09 d2 3d f4 54 4a 3f
       0.12175578 0.016438242 0.10255685 0.7903588
0001b0 37 f0 a2 3d 8b 3d 41 3e 07 c8 ac 3e 0d 13 a3 3e
       0.079559736 0.18871133 0.3374636 0.31850472
0001c0 c5 21 8a 3e e4 21 17 3f 9e 02 bd be 44 d7 b5 be
       0.2697889 0.5903609 -0.3691606 -0.35515797
0001d0 6a 42 88 3e 3c 7b 68 3f 03 df 89 3e c6 a8 09 3f
       0.2661317 0.9081304 0.26927957 0.5377315
0001e0 1e 95 3c 3e 20 31 b1 3e 64 ee d2 3e b1 4c 8e 3e
       0.18416259 0.34607792 0.41197503 0.27792886
0001f0 76 71 85 bd 46 8f 6d 3e b1 40 30 3f 20 07 4d bf
       -0.065157816 0.23199186 0.6884871 -0.80088997

layers.1.weight f4 [64, 128]
000000 e8 2a 41 3d de f4 a0 bd 25 5b 65 bd 9e 8e 1c bd
       0.04716006 -0.07859205 -0.055995125 -0.038221948
000010 5c b3 b1 bd e7 38 75 bd ae 3b 80 bc df ff 58 bc
       -0.08676788 -0.05986872 -0.015653457 -0.013244598
000020 82 f8 8e 3c b7 95 28 bd 44 c1 a1 bc 30 0f 3f bd
       0.017452482 -0.041158404 -0.019745477 -0.046645343
000030 b7 4a eb bc 20 c9 23 bd ae 80 47 bd f0 17 8d bc
       -0.02872215 -0.03998673 -0.048706703 -0.017223328
000040 ca c3 0c bd 5a 65 ea 3c 0c 02 10 3d 94 3b d0 bc
       -0.034366407 0.028612781 0.035158202 -0.025419034
000050 44 b6 a6 bd 0a c5 93 bd ca 2a 33 bd e4 bf 4a 3c
       -0.08140233 -0.072153166 -0.04374198 0.012374852
000060 cd 1d 50 3d a1 8f 2b bc 8b 48 8f bc fe 8e e5 3b
       0.05080967 -0.0104712555 -0.017490646 0.0070055714
000070 75 5b 73 bd 18 e5 02 3d 21 92 99 3c 31 fa ba 3c
       -0.059413392 0.031956762 0.018746438 0.022824379
000080 b9 8b 53 bc 03 cd 25 bc c8 30 24 3c c7 4a 92 bd
       -0.01291173 -0.010119679 0.010021396 -0.07143169
000090 2d 68 5f bc 47 49 18 3d 89 a6 0d bd b3 43 c1 bd
       -0.013635677 0.037179258 -0.03458265 -0.09436741
0000a0 e6 be 24 3d b9 2c 59 bd 50 31 85 bd dc e9 44 bd
       0.040221117 -0.053021166 -0.06503546 -0.04807459
0000b0 66 75 89 bc 14 98 8e bc ef ce 86 3c 20 3b ef 3c
       -0.016779613 -0.0174065 0.016456096 0.029202998
0000c0 c8 91 a1 bd da e2 c3 3c cb 02 04 bd a0 f7 f3 bc
       -0.07889134 0.023911882 -0.032229226 -0.029781163
0000d0 fd 9d f8 bc 0b f1 b0 bd e0 48 60 bd 9b 9f 26 3c
       -0.030348772 -0.08639725 -0.054757 0.010169889
0000e0 48 b5 6d bd b2 21 23 bd 43 74 26 3c 9f 2a 46 3d
       -0.05803421 -0.039827056 0.010159555 0.04838049
0000f0 ac bd 4b bd 30 5e ba bc 37 eb 27 3c 17 18 25 bd
       -0.049741432 -0.02274999 0.010248951 -0.040306177
000100 2a 21 2c bb b5 84 81 bd 01 ab b3 bd bf f0 14 bd
       -0.0026264885 -0.0632414 -0.08772851 -0.036362406
000110 05 9d 6f bc 5a bf da bc 24 e9 1e 3d 6d e0 82 bd
       -0.014624839 -0.026702572 0.03879656 -0.06390462
000120 89 ec 7b bb b1 7c 1f bd 7c 93 2a 3d 02 40 b4 bd
       -0.0038440546 -0.038937274 0.04164456 -0.08801271
000130 49 81 5b bd f2 29 9b bd 51 6d b2 3c bb 5c 9d bd
       -0.053590093 -0.0757636 0.021780642 -0.076837026
000140 59 11 c1 bd f3 8a 79 bd e6 24 b8 bd 96 ac b5 bd
       -0.09427137 -0.060923528 -0.08991413 -0.08870809
000150 21 26 81 bd ad 0d 97 bd 84 35 2c bd 88 92 2a 3c
       -0.06306101 -0.07375655 -0.042043224 0.010410912
000160 c1 d2 55 bd cf fa 01 bc 71 ea 83 3c 01 42 b9 bd
       -0.052202944 -0.007933333 0.016103001 -0.09045792
000170 b9 e0 e4 3c eb 34 91 bd 5a 0e 52 bd bd 07 8a 3c
       0.027939187 -0.070901714 -0.051283218 0.016849393
000180 40 ef 6c bc 81 2f b8 bd a4 bf cf 3c 72 11 f5 3c
       -0.0144613385 -0.08993436 0.025359936 0.029915545
000190 aa 01 dc 3c 55 a9 dc bc 15 2c ea bb 18 ce 91 bd
       0.026856262 -0.026936213 -0.0071463683 -0.071193874
0001a0 1e 6e 0b 3d 6c 19 9e bd 87 85 2c 3d 0d 73 f3 3c
       0.034040563 -0.077196926 0.04211953 0.029717946
0001b0 52 d8 f5 bc 30 09 6b 3c e6 69 36 bd 32 e0 c5 bc
       -0.030010376 0.014345452 -0.044534586 -0.024154756
0001c0 d6 4d a5 bd 06 df 9a bd ee 85 37 3d 3e 95 88 bd
       -0.08071487 -0.075620696 0.04480546 -0.06669091
0001d0 41 27 0b bd 99 ec 66 bd e0 01 58 bd 3d c6 a6 bd
       -0.033972982 -0.05637798 -0.052736163 -0.0814328
0001e0 08 d1 bc 3c 38 f9 ae 3c 77 60 42 bd c8 b0 09 3c
       0.023048893 0.021359071 -0.047455277 0.008403964
0001f0 19 3b a7 bd 96 99 8f bd fe 6c ff 3b d0 e3 0e bd
       -0.08165569 -0.07011716 0.0077949753 -0.034885228
000200 62 30 5f bc 3b cb ae bb 95 61 4e b9 59 21 f0 bc
       -0.013622375 -0.0053342856 -0.00019682043 -0.029312776
000210 b5 45 02 bd 84 e0 29 3d 06 64 4a bd d6 bc e9 bc
       -0.03180476 0.04147388 -0.049411796 -0.028532427
000220 b9 7e 93 3c cf f5 39 3c c0 ea be bd 8d b5 fd bb
       0.018004762 0.011350109 -0.09322119 -0.00774259
000230 94 f0 2d bd 48 b8 23 3d d2 eb 86 bd 79 8e 6e bc
       -0.04246576 0.039970666 -0.06587948 -0.014560335
000240 30 68 19 3b 1a 5f 74 bd b4 de aa bc 6c 42 bb bd
       0.0023408048 -0.05966101 -0.020858146 -0.09143528
000250 42 73 9e 3c 73 15 3c 3c ce b7 19 bc d3 60 be bd
       0.019342069 0.011479723 -0.009382201 -0.092958115
000260 f9 39 af bd 98 b5 7b bc a4 13 88 bd 79 31 d8 3c
       -0.08555979 -0.01536312 -0.06644371 0.026390778
000270 e6 bf a9 bd 19 44 22 bd 1d fa 77 bc 3c 40 5e bd
       -0.08288555 -0.039615724 -0.015135315 -0.054260477
000280 e6 4e 2e 3d 27 21 7b 3b ce 62 57 bd c5 ba 1d bd
       0.042555712 0.003831932 -0.052584462 -0.038508195
000290 c1 c6 4c bc 72 18 e9 3b 7e d2 62 bd fb 39 a8 bd
       -0.0124985585 0.00711351 -0.055376522 -0.08214184
0002a0 35 fe 7d bd 09 52 ae bd d3 fa 18 bd b2 d4 1c 3b
       -0.06201001 -0.08511741 -0.03734858 0.0023930487
0002b0 ad 3e a0 bd 45 e7 6a bd 71 a3 9a bc a6 ea b8 3c
       -0.078244545 -0.057349462 -0.018876763 0.022572827
0002c0 90 af 63 3c 12 a1 9a bd 2c 12 f5 3c 33 f5 86 3c
       0.013896838 -0.07550253 0.029915892 0.016474342
0002d0 f6 a4 12 3c ab cd 42 3d 6d 48 95 3c 33 d8 1a 3d
       0.008950463 0.04755942 0.018223012 0.03780384
0002e0 d9 58 4b bd d9 e9 94 bd 4b 86 42 bd b8 1e 97 bd
       -0.04964528 -0.072711654 -0.047491353 -0.07378906
0002f0 3e c7 8e 3c 87 89 9c bd 8f 8f 0f 3d 59 f3 73 bd
       0.01742899 -0.07643419 0.035049018 -0.059558246
000300 29 19 38 3d 51 92 bd bd 48 40 f8 3c bf 1f bd bd
       0.04494587 -0.09256423 0.03030409 -0.09234571
000310 d6 52 f4 3c 07 6c 64 3c 76 b3 98 bd f0 02 48 3c
       0.029824656 0.013941771 -0.074561045 0.012207732
000320 c7 fc 22 bd ee 43 92 3c 94 79 7f bd 7b 1d 3f bd
       -0.03979185 0.017854657 -0.062371805 -0.046658974
000330 be ea a0 bd a3 c0 9d bb 70 fc 6a bd b5 87 2d bd
       -0.078572735 -0.004814224 -0.05736965 -0.04236575
000340 4d 9e b2 3c fe b0 5e 3b 92 e1 9d bd 05 31 0a 3d
       0.021804 0.0033980007 -0.0770904 0.033738155
000350 80 f4 a0 3c 46 c3 8f bd 29 80 a5 bc ee 51 25 bc
       0.019647837 -0.07019667 -0.020202713 -0.010090334
000360 e2 fa 8c bd eb f8 c1 bc b3 ff b5 bd c1 5d 0a bc
       -0.068837896 -0.023678264 -0.088866614 -0.008445204
000370 51 38 ac bd 9b 95 af bd d0 63 26 bd e9 7e fc 3b
       -0.08409179 -0.08573457 -0.040622532 0.0077055586
000380 a0 f1 15 3d 6b 30 87 bd c0 69 1c bd e7 11 39 3d
       0.036607385 -0.06601032 -0.03818679 0.04518309
000390 ae 52 09 bd 50 47 66 bc c2 14 89 bc 7a aa 4e bd
       -0.033526115 -0.014055088 -0.01673353 -0.050455548
0003a0 2a 14 c0 bd 8d 3a 11 bc 1e a5 22 bd d9 70 15 bd
       -0.09378846 -0.008864057 -0.03970825 -0.036484573
0003b0 b3 cf 23 3c 40 aa 10 3a 80 0d c6 bc 4c a9 82 bd
       0.00999825 0.0005518533 -0.02417636 -0.06379947
0003c0 5d ff 91 bd d5 24 7e bd da 6d 12 bb cd c1 88 3c
       -0.07128785 -0.062046845 -0.0022343309 0.016693974
0003d0 11 9a bd 3c a9 58 70 bd ce 90 ad 3c 80 04 9c bc
       0.023144754 -0.058678303 0.021187212 -0.019045115
0003e0 fc 1f 22 bc c0 bb 32 3d dd 44 c8 ba 08 a2 2e 3d
       -0.009895321 0.043636084 -0.0015279312 0.042634994
0003f0 58 6a 67 3c c6 c3 27 3d f0 88 0d 3d f1 8c 2a 3d
       0.014124475 0.04095819 0.034554422 0.04163832

layers.1.bias f4 [64]
000000 9d db 05 bd ec 25 c3 3c 08 28 1d 3c f3 29 88 bd
       -0.032680143 0.023821793 0.009592064 -0.06648626
000010 40 9d 93 3d 14 fa 70 3e 6e 21 ec 3b 28 25 21 3e
       0.072077274 0.23532897 0.0072061336 0.1573683
000020 d7 4a 39 3e 75 2b 0e 3e 58 09 47 3e 63 84 d3 bb
       0.18094955 0.13883765 0.19437158 -0.0064549907
000030 1a ac fe 3e 7f f0 26 3e 41 18 04 bf 00 c1 42 3e
       0.49740678 0.1630268 -0.5159951 0.19018936
000040 c3 65 39 bd 50 35 1e 3e 63 4e 3e 3c 01 d2 95 3d
       -0.045263063 0.15450025 0.011615369 0.07315446
000050 90 c9 e0 3d 82 20 52 3e e5 f6 bf bd 9f b8 26 bd
       0.10975945 0.20520213 -0.09373263 -0.040703412
000060 66 33 8b 3e bd c3 59 3e d8 a7 a3 be 74 88 b5 3c
       0.2718765 0.21266074 -0.31963992 0.022159792
000070 25 ed c4 3e 1c bb ec 3d 2c 83 63 3e dd 48 a2 bd
       0.38462177 0.11559126 0.22218007 -0.07924054
000080 bd e1 86 3e 7e ae 0c 3e 5a 78 a2 bd 5e 56 2c 3e
       0.263441 0.13738438 -0.079331115 0.16829821
000090 45 0b 19 bc f8 c3 3c bd 6b 6e 23 3d 82 0b 49 3e
       -0.009341066 -0.046085328 0.039900225 0.19633296
0000a0 0b 8e 65 3e 27 e1 16 3e 90 9d 9f 3e 6a 63 76 3e
       0.22417466 0.14734326 0.31174898 0.24061361
0000b0 9a 46 c3 bc 8c c8 3b 3e 37 bd 8f bd 85 2c 91 3d
       -0.023837376 0.18338221 -0.07018512 0.070885696
0000c0 cd f2 07 bd e6 1f 90 3e fa 82 8c 3d 84 05 82 3e
       -0.033190537 0.28149337 0.06860919 0.25394833
0000d0 b1 50 cf 3d ac 6f d1 3d 59 cc 57 bd a7 ca b0 bb
       0.101228125 0.10226378 -0.052685115 -0.005395252
0000e0 b1 e4 1f bd 78 ad c4 bd 38 bc dc 3c bd b4 39 3e
       -0.039036456 -0.09603399 0.026945218 0.18135352
0000f0 a7 3b bf 3e 6d da 35 3e 61 8a 3b 3e 34 9a 9a 3e
       0.373502 0.17759104 0.18314506 0.30195773

layers.2.weight f4 [8, 64]
000000 41 4d a9 3c 58 32 84 bd fb 5c fe 3c 8f 4e 3b 3d
       0.02066672 -0.06454915 0.031050196 0.045729216
000010 67 b0 d5 3e d1 2b d3 3f df 6b 9c 3d 02 87 b1 3e
       0.41736147 1.6497747 0.07637762 0.34673315
000020 09 46 d4 3e c6 33 dc 3e 0b 50 bd 3e 7e 60 e3 bc
       0.41459683 0.4300825 0.3697513 -0.027755972
000030 bd 35 f5 3e 90 55 d4 3e b1 f5 2a c0 98 f8 d4 3e
       0.47892562 0.4147153 -2.6712458 0.41595912
000040 e4 45 f6 3d fe 1a 00 3f a2 6f 5c bd 15 b7 e3 3e
       0.12025049 0.50041187 -0.0538174 0.44475618
000050 8c a0 c7 3e c3 79 cb 3e 7d 4f 98 bd db 1c a0 bd
       0.38989675 0.39741334 -0.07437036 -0.07818004
000060 57 fd ea 3e 81 a1 e7 3e a4 10 28 c0 cb ca 94 bd
       0.45896408 0.45240405 -2.6260157 -0.07265242
000070 b6 36 b9 3e 42 ba d1 3e b7 40 af 3e 72 0b a3 bd
       0.36174554 0.40962416 0.3422906 -0.079611674
000080 77 f0 ba 3e 0b 3e de 3e 2c ed 18 bd 3e 64 bf 3e
       0.36511585 0.4340671 -0.03733556 0.37381166
000090 b7 c5 b8 bc 35 8d 71 bd d0 91 73 bd d0 7d f5 3e
       -0.022555215 -0.058972556 -0.05946523 0.4794755
0000a0 2a b6 ab 3e d5 3c e4 3e e2 97 e5 3e c5 d9 a8 3e
       0.33537418 0.4457766 0.4484244 0.32978645
0000b0 a0 b1 1a 3d bd e9 d1 3e f4 47 8c bd 00 83 cd 3e
       0.037767053 0.4099864 -0.068496615 0.40139008
0000c0 6c da 93 bd b9 73 07 3f 6f e5 c2 3e 9d 98 b4 3e
       -0.07219395 0.52910954 0.3806567 0.35272685
0000d0 c8 11 dd 3e e2 82 cf 3e a9 d8 14 3d 1a c6 62 3c
       0.4317763 0.40529543 0.036339436 0.013841176
0000e0 5f 1f 8a bd c8 4e 09 bc 98 6d 1a bd f0 f1 a0 3e
       -0.06744265 -0.008380599 -0.037702173 0.31434584
0000f0 cb e3 ea 3e dd 59 f4 3e 54 54 d3 3e ff 41 04 3f
       0.45876917 0.4772481 0.41275275 0.516632
000100 5d 19 91 bd bf 32 39 3d e1 25 39 bd b1 50 a3 3d
       -0.07084916 0.04521441 -0.04520214 0.07974375
000110 95 fc ec 3e fe 2f ff 3f 34 0c 95 3d 74 09 bb 3e
       0.46286455 1.9936521 0.07277718 0.3653065
000120 84 bf fd 3e 86 d0 00 3f d1 9d fa 3e 3d 5c 18 3e
       0.49560177 0.5031818 0.4894853 0.14878936
000130 25 83 cb 3e 5b 64 be 3e 9e 53 4f c0 d1 46 f6 3e
       0.39748493 0.3718594 -3.2394786 0.48100904
000140 b9 04 fe 3d 77 c3 ea 3e 18 4b 64 3d c3 32 0e 3f
       0.124032445 0.45852253 0.055735677 0.55546206
000150 85 88 f1 3e 2c 63 f1 3e 2d c4 11 bd bf d2 02 3d
       0.4717447 0.47145975 -0.03558748 0.031939264
000160 9d 6a 11 3f de b4 e5 3e 8d fb 4e c0 2b 85 89 bd
       0.56803304 0.44864553 -3.2341034 -0.06714853
000170 c8 9a d5 3e 52 4d c6 3e 37 25 00 3f 2e 1e 1e bd
       0.4171965 0.38730866 0.50056785 -0.038603
000180 b2 f3 c2 3e a5 4b f4 3e ff 83 00 3d de bd 03 3f
       0.3807655 0.47713962 0.03137588 0.5146159
000190 38 51 f5 3d a9 31 03 bd 28 ea 18 3c c5 35 06 3f
       0.11978382 -0.03202978 0.009333171 0.52425796
0001a0 82 66 07 3f 39 6d fb 3e 30 54 da 3e 2c 87 cd 3e
       0.5289079 0.49106768 0.42642355 0.4014219
0001b0 64 0d a5 3c 27 20 0f 3f e3 40 da 3d 00 40 c4 3e
       0.020147987 0.55908436 0.106569074 0.38330078
0001c0 b9 a4 e7 3d 22 f7 06 3f 90 9b e2 3e 92 ce ee 3e
       0.11310715 0.52720845 0.4425931 0.46641976
0001d0 d9 f5 d8 3e b4 7f f6 3e cc 2c 86 bd 36 91 82 bd
       0.42375067 0.48144305 -0.06551513 -0.06375353
0001e0 7d a3 9c bd 69 5e 86 bd 8d 75 88 3d 15 76 ec 3e
       -0.076483704 -0.06560976 0.06663046 0.4618384
0001f0 7f 9c fa 3e bd 55 ce 3e 1d c8 d3 3e 78 4e e4 3e
       0.48947522 0.40299788 0.41363612 0.44591117
000200 e9 34 20 bd 73 0d 91 bb 65 6c a7 bb e2 54 ad 3d
       -0.03911296 -0.004426652 -0.005109357 0.08463456
000210 24 5d 9e 3e 9e d1 de 3f af 1f 96 bd 77 f7 95 3e
       0.30930436 1.740772 -0.07330262 0.29290363
000220 b9 6a 91 3e ad 23 db 3e 0c 91 00 3f 4e af 9f bc
       0.28401735 0.42800656 0.50221324 -0.019492771
000230 ca d1 ef 3e 25 20 c0 3e 4a 79 31 c0 2a c1 e7 3e
       0.46839744 0.37524524 -2.773028 0.4526456
000240 37 3d 0d 3d 31 b8 c7 3e b8 3a 84 3d 3d 6c ec 3e
       0.034482207 0.39007714 0.06456512 0.4617633
000250 1f 1e f6 3e 06 33 83 3e 1c c4 f4 3d fa 12 75 3b
       0.48069856 0.25624865 0.119514674 0.0037395344
000260 29 7e bd 3e 14 e4 b1 3e e8 05 36 c0 83 8e ef 3d
       0.37010315 0.34744322 -2.8441105 0.11697104
000270 8c 60 0b 3f 55 ae 9a 3e c5 41 00 3f 9e 7e 59 bd
       0.54444194 0.3021113 0.50100356 -0.053099267
000280 4d 98 ab 3e 46 a6 a1 3e af ef 0d 3c 8d 77 f1 3e
       0.33514634 0.3157217 0.008663102 0.47161523
000290 b6 1c 31 3d 4a af bc 3d e8 91 e2 3d 28 c7 c2 3e
       0.04324027 0.09213121 0.11062986 0.3804257
0002a0 2c f3 e8 3e 61 45 c4 3e d5 c6 01 3f 56 e4 bb 3e
       0.45498025 0.38334182 0.5069402 0.36697644
0002b0 c1 dd 0d bd 8f 9f ea 3e a3 80 94 3d 1c ad d0 3e
       -0.03463531 0.4582486 0.07251098 0.40757072
0002c0 7e 06 4e 3c 01 5a b5 3e c6 98 e9 3e 46 e3 d0 3e
       0.01257479 0.3542023 0.4562437 0.40798396
0002d0 bb 16 d3 3e 68 75 e2 3e fe 53 97 bd 24 d5 a7 bd
       0.4122828 0.442302 -0.07389067 -0.0819495
0002e0 ec 53 8b 3c 05 94 9c bd be 69 ea 3d ab 29 f2 3e
       0.01700779 -0.0764542 0.1144595 0.47297415
0002f0 f4 d2 ca 3e 22 98 d7 3e b0 3e ca 3e 25 dc b1 3e
       0.3961407 0.42108256 0.39500952 0.3473827
000300 c7 84 c2 3b c0 ed 16 3c e5 0b 59 bd 13 f7 ba bd
       0.0059362384 0.009211957 -0.05298986 -0.09129157
000310 b5 8e 28 3d 64 08 2f bb 36 53 ab bd 0e 38 a1 bd
       0.04115172 -0.0026707882 -0.083654806 -0.0787202
000320 47 fe d3 bd 62 d3 09 3d 27 a2 bb bd b9 aa e8 bd
       -0.10351234 0.033648856 -0.091617875 -0.11360688
000330 e4 71 29 bd fe d6 f3 bb 8f 44 45 3d fb 63 55 3c
       -0.04136838 -0.0074414006 0.048161086 0.0130243255
000340 c2 36 82 3d 63 f7 b6 3d 60 0a 79 bd da 81 dd bd
       0.063581005 0.08933904 -0.06080091 -0.10815783
000350 15 31 ef 3b a9 11 a7 bd f9 bc 7e ba 5f a3 9f 3d
       0.007299552 -0.08157665 -0.000971749 0.077948324
000360 9e ad ad bd ea c9 06 bd be 0d bb bc b7 3b 6a bd
       -0.084803805 -0.032907404 -0.022833701 -0.057185855
000370 04 7a 48 bd 10 58 48 bd 08 27 13 bd 2b 8b c8 bd
       -0.04894449 -0.048912108 -0.035925895 -0.09792169
000380 52 e4 ed 3c 2b 92 95 3c 8e d5 96 3d a4 db ef bd
       0.029039536 0.018258175 0.07364951 -0.11711815
000390 80 4a 95 bc 88 b5 a7 bc a1 f6 08 bc 06 78 a7 3d
       -0.018224 -0.020472303 -0.008359582 0.081771895
0003a0 e8 d4 47 bd 3b f6 97 bd 97 29 ab 3d d1 b8 93 3d
       -0.048787028 -0.074200116 0.08357542 0.07212985
0003b0 01 d2 9c 39 c7 c5 3a 3d 43 b5 a3 bc 99 ee fd 3c
       0.00029911104 0.04559877 -0.019983893 0.030997561
0003c0 d9 84 d4 bd 32 cf 51 3d c3 8d 20 3d e5 e3 dc bd
       -0.10376901 0.051222987 0.039197695 -0.10785655
0003d0 ff c6 6f 3d dd 14 eb bd 32 1f 21 bd ad 26 10 3d
       0.058539387 -0.11478589 -0.03933639 0.035193134
0003e0 c3 91 dd bd 60 71 d0 ba 03 0f 9f bd fd 2d 12 3d
       -0.108188175 -0.0015902929 -0.07766535 0.03568839
0003f0 b1 a5 cb bc 30 38 52 bd cf a4 bf 3c ce 6b 03 bd
       -0.024859281 -0.051323116 0.023394017 -0.032085232

layers.2.bias f4 [8]
000000 14 e3 3b 3e d4 b3 80 3e 64 bc 5c 3e 0c ed a9 bd
       0.18348342 0.25137198 0.2155624 -0.08297166
000010 2a cf c7 3c 29 05 36 3e 56 24 8a bd b8 c7 d3 3d
       0.024390776 0.17775406 -0.06745212 0.10340828

output_layer.weight f4 [1, 8]
000000 63 ef 97 3f 1c 37 89 3f 34 dd 96 3f 0b 8d 64 be
       1.186993 1.0719943 1.1786256 -0.22319429
000010 0e 5e b1 bc cd 40 9c 3f bb 45 18 be c5 8e 8e 3f
       -0.021651294 1.2207276 -0.1487035 1.113732
